saved_model_schema_version: 1
meta_graphs {
  meta_info_def {
    stripped_op_list {
      op {
        name: "Add"
        input_arg {
          name: "x"
          type_attr: "T"
        }
        input_arg {
          name: "y"
          type_attr: "T"
        }
        output_arg {
          name: "z"
          type_attr: "T"
        }
        attr {
          name: "T"
          type: "type"
          allowed_values {
            list {
              type: DT_BFLOAT16
              type: DT_HALF
              type: DT_FLOAT
              type: DT_DOUBLE
              type: DT_UINT8
              type: DT_INT8
              type: DT_INT16
              type: DT_INT32
              type: DT_INT64
              type: DT_COMPLEX64
              type: DT_COMPLEX128
              type: DT_STRING
            }
          }
        }
      }
      op {
        name: "AddV2"
        input_arg {
          name: "x"
          type_attr: "T"
        }
        input_arg {
          name: "y"
          type_attr: "T"
        }
        output_arg {
          name: "z"
          type_attr: "T"
        }
        attr {
          name: "T"
          type: "type"
          allowed_values {
            list {
              type: DT_BFLOAT16
              type: DT_HALF
              type: DT_FLOAT
              type: DT_DOUBLE
              type: DT_UINT8
              type: DT_INT8
              type: DT_INT16
              type: DT_INT32
              type: DT_INT64
              type: DT_COMPLEX64
              type: DT_COMPLEX128
            }
          }
        }
        is_aggregate: true
        is_commutative: true
      }
      op {
        name: "AssignVariableOp"
        input_arg {
          name: "resource"
          type: DT_RESOURCE
        }
        input_arg {
          name: "value"
          type_attr: "dtype"
        }
        attr {
          name: "dtype"
          type: "type"
        }
        is_stateful: true
      }
      op {
        name: "BroadcastGradientArgs"
        input_arg {
          name: "s0"
          type_attr: "T"
        }
        input_arg {
          name: "s1"
          type_attr: "T"
        }
        output_arg {
          name: "r0"
          type_attr: "T"
        }
        output_arg {
          name: "r1"
          type_attr: "T"
        }
        attr {
          name: "T"
          type: "type"
          default_value {
            type: DT_INT32
          }
          allowed_values {
            list {
              type: DT_INT32
              type: DT_INT64
            }
          }
        }
      }
      op {
        name: "BroadcastTo"
        input_arg {
          name: "input"
          type_attr: "T"
        }
        input_arg {
          name: "shape"
          type_attr: "Tidx"
        }
        output_arg {
          name: "output"
          type_attr: "T"
        }
        attr {
          name: "T"
          type: "type"
        }
        attr {
          name: "Tidx"
          type: "type"
          default_value {
            type: DT_INT32
          }
          allowed_values {
            list {
              type: DT_INT32
              type: DT_INT64
            }
          }
        }
      }
      op {
        name: "Const"
        output_arg {
          name: "output"
          type_attr: "dtype"
        }
        attr {
          name: "value"
          type: "tensor"
        }
        attr {
          name: "dtype"
          type: "type"
        }
      }
      op {
        name: "DynamicStitch"
        input_arg {
          name: "indices"
          type: DT_INT32
          number_attr: "N"
        }
        input_arg {
          name: "data"
          type_attr: "T"
          number_attr: "N"
        }
        output_arg {
          name: "merged"
          type_attr: "T"
        }
        attr {
          name: "N"
          type: "int"
          has_minimum: true
          minimum: 1
        }
        attr {
          name: "T"
          type: "type"
        }
      }
      op {
        name: "Fill"
        input_arg {
          name: "dims"
          type_attr: "index_type"
        }
        input_arg {
          name: "value"
          type_attr: "T"
        }
        output_arg {
          name: "output"
          type_attr: "T"
        }
        attr {
          name: "T"
          type: "type"
        }
        attr {
          name: "index_type"
          type: "type"
          default_value {
            type: DT_INT32
          }
          allowed_values {
            list {
              type: DT_INT32
              type: DT_INT64
            }
          }
        }
      }
      op {
        name: "FloorMod"
        input_arg {
          name: "x"
          type_attr: "T"
        }
        input_arg {
          name: "y"
          type_attr: "T"
        }
        output_arg {
          name: "z"
          type_attr: "T"
        }
        attr {
          name: "T"
          type: "type"
          allowed_values {
            list {
              type: DT_INT32
              type: DT_INT64
              type: DT_BFLOAT16
              type: DT_HALF
              type: DT_FLOAT
              type: DT_DOUBLE
            }
          }
        }
      }
      op {
        name: "Identity"
        input_arg {
          name: "input"
          type_attr: "T"
        }
        output_arg {
          name: "output"
          type_attr: "T"
        }
        attr {
          name: "T"
          type: "type"
        }
      }
      op {
        name: "Log"
        input_arg {
          name: "x"
          type_attr: "T"
        }
        output_arg {
          name: "y"
          type_attr: "T"
        }
        attr {
          name: "T"
          type: "type"
          allowed_values {
            list {
              type: DT_BFLOAT16
              type: DT_HALF
              type: DT_FLOAT
              type: DT_DOUBLE
              type: DT_COMPLEX64
              type: DT_COMPLEX128
            }
          }
        }
      }
      op {
        name: "MatMul"
        input_arg {
          name: "a"
          type_attr: "T"
        }
        input_arg {
          name: "b"
          type_attr: "T"
        }
        output_arg {
          name: "product"
          type_attr: "T"
        }
        attr {
          name: "transpose_a"
          type: "bool"
          default_value {
            b: false
          }
        }
        attr {
          name: "transpose_b"
          type: "bool"
          default_value {
            b: false
          }
        }
        attr {
          name: "T"
          type: "type"
          allowed_values {
            list {
              type: DT_BFLOAT16
              type: DT_HALF
              type: DT_FLOAT
              type: DT_DOUBLE
              type: DT_INT32
              type: DT_INT64
              type: DT_COMPLEX64
              type: DT_COMPLEX128
            }
          }
        }
      }
      op {
        name: "MergeV2Checkpoints"
        input_arg {
          name: "checkpoint_prefixes"
          type: DT_STRING
        }
        input_arg {
          name: "destination_prefix"
          type: DT_STRING
        }
        attr {
          name: "delete_old_dirs"
          type: "bool"
          default_value {
            b: true
          }
        }
        is_stateful: true
      }
      op {
        name: "Mul"
        input_arg {
          name: "x"
          type_attr: "T"
        }
        input_arg {
          name: "y"
          type_attr: "T"
        }
        output_arg {
          name: "z"
          type_attr: "T"
        }
        attr {
          name: "T"
          type: "type"
          allowed_values {
            list {
              type: DT_BFLOAT16
              type: DT_HALF
              type: DT_FLOAT
              type: DT_DOUBLE
              type: DT_UINT8
              type: DT_INT8
              type: DT_UINT16
              type: DT_INT16
              type: DT_INT32
              type: DT_INT64
              type: DT_COMPLEX64
              type: DT_COMPLEX128
            }
          }
        }
        is_commutative: true
      }
      op {
        name: "Neg"
        input_arg {
          name: "x"
          type_attr: "T"
        }
        output_arg {
          name: "y"
          type_attr: "T"
        }
        attr {
          name: "T"
          type: "type"
          allowed_values {
            list {
              type: DT_BFLOAT16
              type: DT_HALF
              type: DT_FLOAT
              type: DT_DOUBLE
              type: DT_INT32
              type: DT_INT64
              type: DT_COMPLEX64
              type: DT_COMPLEX128
            }
          }
        }
      }
      op {
        name: "NoOp"
      }
      op {
        name: "Pack"
        input_arg {
          name: "values"
          type_attr: "T"
          number_attr: "N"
        }
        output_arg {
          name: "output"
          type_attr: "T"
        }
        attr {
          name: "N"
          type: "int"
          has_minimum: true
          minimum: 1
        }
        attr {
          name: "T"
          type: "type"
        }
        attr {
          name: "axis"
          type: "int"
          default_value {
            i: 0
          }
        }
      }
      op {
        name: "Placeholder"
        output_arg {
          name: "output"
          type_attr: "dtype"
        }
        attr {
          name: "dtype"
          type: "type"
        }
        attr {
          name: "shape"
          type: "shape"
          default_value {
            shape {
              unknown_rank: true
            }
          }
        }
      }
      op {
        name: "PlaceholderWithDefault"
        input_arg {
          name: "input"
          type_attr: "dtype"
        }
        output_arg {
          name: "output"
          type_attr: "dtype"
        }
        attr {
          name: "dtype"
          type: "type"
        }
        attr {
          name: "shape"
          type: "shape"
        }
      }
      op {
        name: "Range"
        input_arg {
          name: "start"
          type_attr: "Tidx"
        }
        input_arg {
          name: "limit"
          type_attr: "Tidx"
        }
        input_arg {
          name: "delta"
          type_attr: "Tidx"
        }
        output_arg {
          name: "output"
          type_attr: "Tidx"
        }
        attr {
          name: "Tidx"
          type: "type"
          default_value {
            type: DT_INT32
          }
          allowed_values {
            list {
              type: DT_BFLOAT16
              type: DT_HALF
              type: DT_FLOAT
              type: DT_DOUBLE
              type: DT_INT32
              type: DT_INT64
            }
          }
        }
      }
      op {
        name: "ReadVariableOp"
        input_arg {
          name: "resource"
          type: DT_RESOURCE
        }
        output_arg {
          name: "value"
          type_attr: "dtype"
        }
        attr {
          name: "dtype"
          type: "type"
        }
        is_stateful: true
      }
      op {
        name: "Reciprocal"
        input_arg {
          name: "x"
          type_attr: "T"
        }
        output_arg {
          name: "y"
          type_attr: "T"
        }
        attr {
          name: "T"
          type: "type"
          allowed_values {
            list {
              type: DT_BFLOAT16
              type: DT_HALF
              type: DT_FLOAT
              type: DT_DOUBLE
              type: DT_INT32
              type: DT_INT64
              type: DT_COMPLEX64
              type: DT_COMPLEX128
            }
          }
        }
      }
      op {
        name: "Relu"
        input_arg {
          name: "features"
          type_attr: "T"
        }
        output_arg {
          name: "activations"
          type_attr: "T"
        }
        attr {
          name: "T"
          type: "type"
          allowed_values {
            list {
              type: DT_FLOAT
              type: DT_DOUBLE
              type: DT_INT32
              type: DT_UINT8
              type: DT_INT16
              type: DT_INT8
              type: DT_INT64
              type: DT_BFLOAT16
              type: DT_UINT16
              type: DT_HALF
              type: DT_UINT32
              type: DT_UINT64
              type: DT_QINT8
            }
          }
        }
      }
      op {
        name: "ReluGrad"
        input_arg {
          name: "gradients"
          type_attr: "T"
        }
        input_arg {
          name: "features"
          type_attr: "T"
        }
        output_arg {
          name: "backprops"
          type_attr: "T"
        }
        attr {
          name: "T"
          type: "type"
          allowed_values {
            list {
              type: DT_FLOAT
              type: DT_DOUBLE
              type: DT_INT32
              type: DT_UINT8
              type: DT_INT16
              type: DT_INT8
              type: DT_INT64
              type: DT_BFLOAT16
              type: DT_UINT16
              type: DT_HALF
              type: DT_UINT32
              type: DT_UINT64
            }
          }
        }
      }
      op {
        name: "Reshape"
        input_arg {
          name: "tensor"
          type_attr: "T"
        }
        input_arg {
          name: "shape"
          type_attr: "Tshape"
        }
        output_arg {
          name: "output"
          type_attr: "T"
        }
        attr {
          name: "T"
          type: "type"
        }
        attr {
          name: "Tshape"
          type: "type"
          default_value {
            type: DT_INT32
          }
          allowed_values {
            list {
              type: DT_INT32
              type: DT_INT64
            }
          }
        }
      }
      op {
        name: "ResourceApplyAdam"
        input_arg {
          name: "var"
          type: DT_RESOURCE
        }
        input_arg {
          name: "m"
          type: DT_RESOURCE
        }
        input_arg {
          name: "v"
          type: DT_RESOURCE
        }
        input_arg {
          name: "beta1_power"
          type_attr: "T"
        }
        input_arg {
          name: "beta2_power"
          type_attr: "T"
        }
        input_arg {
          name: "lr"
          type_attr: "T"
        }
        input_arg {
          name: "beta1"
          type_attr: "T"
        }
        input_arg {
          name: "beta2"
          type_attr: "T"
        }
        input_arg {
          name: "epsilon"
          type_attr: "T"
        }
        input_arg {
          name: "grad"
          type_attr: "T"
        }
        attr {
          name: "T"
          type: "type"
          allowed_values {
            list {
              type: DT_FLOAT
              type: DT_DOUBLE
              type: DT_INT32
              type: DT_UINT8
              type: DT_INT16
              type: DT_INT8
              type: DT_COMPLEX64
              type: DT_INT64
              type: DT_QINT8
              type: DT_QUINT8
              type: DT_QINT32
              type: DT_BFLOAT16
              type: DT_UINT16
              type: DT_COMPLEX128
              type: DT_HALF
              type: DT_UINT32
              type: DT_UINT64
            }
          }
        }
        attr {
          name: "use_locking"
          type: "bool"
          default_value {
            b: false
          }
        }
        attr {
          name: "use_nesterov"
          type: "bool"
          default_value {
            b: false
          }
        }
        is_stateful: true
      }
      op {
        name: "RestoreV2"
        input_arg {
          name: "prefix"
          type: DT_STRING
        }
        input_arg {
          name: "tensor_names"
          type: DT_STRING
        }
        input_arg {
          name: "shape_and_slices"
          type: DT_STRING
        }
        output_arg {
          name: "tensors"
          type_list_attr: "dtypes"
        }
        attr {
          name: "dtypes"
          type: "list(type)"
          has_minimum: true
          minimum: 1
        }
        is_stateful: true
      }
      op {
        name: "SaveV2"
        input_arg {
          name: "prefix"
          type: DT_STRING
        }
        input_arg {
          name: "tensor_names"
          type: DT_STRING
        }
        input_arg {
          name: "shape_and_slices"
          type: DT_STRING
        }
        input_arg {
          name: "tensors"
          type_list_attr: "dtypes"
        }
        attr {
          name: "dtypes"
          type: "list(type)"
          has_minimum: true
          minimum: 1
        }
        is_stateful: true
      }
      op {
        name: "Select"
        input_arg {
          name: "condition"
          type: DT_BOOL
        }
        input_arg {
          name: "t"
          type_attr: "T"
        }
        input_arg {
          name: "e"
          type_attr: "T"
        }
        output_arg {
          name: "output"
          type_attr: "T"
        }
        attr {
          name: "T"
          type: "type"
        }
      }
      op {
        name: "Shape"
        input_arg {
          name: "input"
          type_attr: "T"
        }
        output_arg {
          name: "output"
          type_attr: "out_type"
        }
        attr {
          name: "T"
          type: "type"
        }
        attr {
          name: "out_type"
          type: "type"
          default_value {
            type: DT_INT32
          }
          allowed_values {
            list {
              type: DT_INT32
              type: DT_INT64
            }
          }
        }
      }
      op {
        name: "ShardedFilename"
        input_arg {
          name: "basename"
          type: DT_STRING
        }
        input_arg {
          name: "shard"
          type: DT_INT32
        }
        input_arg {
          name: "num_shards"
          type: DT_INT32
        }
        output_arg {
          name: "filename"
          type: DT_STRING
        }
      }
      op {
        name: "Softmax"
        input_arg {
          name: "logits"
          type_attr: "T"
        }
        output_arg {
          name: "softmax"
          type_attr: "T"
        }
        attr {
          name: "T"
          type: "type"
          allowed_values {
            list {
              type: DT_HALF
              type: DT_BFLOAT16
              type: DT_FLOAT
              type: DT_DOUBLE
            }
          }
        }
      }
      op {
        name: "StaticRegexFullMatch"
        input_arg {
          name: "input"
          type: DT_STRING
        }
        output_arg {
          name: "output"
          type: DT_BOOL
        }
        attr {
          name: "pattern"
          type: "string"
        }
      }
      op {
        name: "StringJoin"
        input_arg {
          name: "inputs"
          type: DT_STRING
          number_attr: "N"
        }
        output_arg {
          name: "output"
          type: DT_STRING
        }
        attr {
          name: "N"
          type: "int"
          has_minimum: true
          minimum: 1
        }
        attr {
          name: "separator"
          type: "string"
          default_value {
            s: ""
          }
        }
      }
      op {
        name: "Sub"
        input_arg {
          name: "x"
          type_attr: "T"
        }
        input_arg {
          name: "y"
          type_attr: "T"
        }
        output_arg {
          name: "z"
          type_attr: "T"
        }
        attr {
          name: "T"
          type: "type"
          allowed_values {
            list {
              type: DT_BFLOAT16
              type: DT_HALF
              type: DT_FLOAT
              type: DT_DOUBLE
              type: DT_UINT8
              type: DT_INT8
              type: DT_UINT16
              type: DT_INT16
              type: DT_INT32
              type: DT_INT64
              type: DT_COMPLEX64
              type: DT_COMPLEX128
            }
          }
        }
      }
      op {
        name: "Sum"
        input_arg {
          name: "input"
          type_attr: "T"
        }
        input_arg {
          name: "reduction_indices"
          type_attr: "Tidx"
        }
        output_arg {
          name: "output"
          type_attr: "T"
        }
        attr {
          name: "keep_dims"
          type: "bool"
          default_value {
            b: false
          }
        }
        attr {
          name: "T"
          type: "type"
          allowed_values {
            list {
              type: DT_FLOAT
              type: DT_DOUBLE
              type: DT_INT32
              type: DT_UINT8
              type: DT_INT16
              type: DT_INT8
              type: DT_COMPLEX64
              type: DT_INT64
              type: DT_QINT8
              type: DT_QUINT8
              type: DT_QINT32
              type: DT_BFLOAT16
              type: DT_UINT16
              type: DT_COMPLEX128
              type: DT_HALF
              type: DT_UINT32
              type: DT_UINT64
            }
          }
        }
        attr {
          name: "Tidx"
          type: "type"
          default_value {
            type: DT_INT32
          }
          allowed_values {
            list {
              type: DT_INT32
              type: DT_INT64
            }
          }
        }
      }
      op {
        name: "TruncatedNormal"
        input_arg {
          name: "shape"
          type_attr: "T"
        }
        output_arg {
          name: "output"
          type_attr: "dtype"
        }
        attr {
          name: "seed"
          type: "int"
          default_value {
            i: 0
          }
        }
        attr {
          name: "seed2"
          type: "int"
          default_value {
            i: 0
          }
        }
        attr {
          name: "dtype"
          type: "type"
          allowed_values {
            list {
              type: DT_HALF
              type: DT_BFLOAT16
              type: DT_FLOAT
              type: DT_DOUBLE
            }
          }
        }
        attr {
          name: "T"
          type: "type"
          allowed_values {
            list {
              type: DT_INT32
              type: DT_INT64
            }
          }
        }
        is_stateful: true
      }
      op {
        name: "VarHandleOp"
        output_arg {
          name: "resource"
          type: DT_RESOURCE
        }
        attr {
          name: "container"
          type: "string"
          default_value {
            s: ""
          }
        }
        attr {
          name: "shared_name"
          type: "string"
          default_value {
            s: ""
          }
        }
        attr {
          name: "dtype"
          type: "type"
        }
        attr {
          name: "shape"
          type: "shape"
        }
        is_stateful: true
      }
      op {
        name: "VarIsInitializedOp"
        input_arg {
          name: "resource"
          type: DT_RESOURCE
        }
        output_arg {
          name: "is_initialized"
          type: DT_BOOL
        }
        is_stateful: true
      }
    }
    tags: "serve"
    tensorflow_version: "2.2.0"
    tensorflow_git_version: "v2.2.0-rc4-8-g2b96f3662b"
  }
  graph_def {
    node {
      name: "reward"
      op: "Placeholder"
      attr {
        key: "_output_shapes"
        value {
          list {
            shape {
              dim {
                size: -1
              }
            }
          }
        }
      }
      attr {
        key: "dtype"
        value {
          type: DT_FLOAT
        }
      }
      attr {
        key: "shape"
        value {
          shape {
            dim {
              size: -1
            }
          }
        }
      }
    }
    node {
      name: "actual_move"
      op: "Placeholder"
      attr {
        key: "_output_shapes"
        value {
          list {
            shape {
              dim {
                size: -1
              }
              dim {
                size: 3
              }
            }
          }
        }
      }
      attr {
        key: "dtype"
        value {
          type: DT_FLOAT
        }
      }
      attr {
        key: "shape"
        value {
          shape {
            dim {
              size: -1
            }
            dim {
              size: 3
            }
          }
        }
      }
    }
    node {
      name: "network/Placeholder"
      op: "Placeholder"
      attr {
        key: "_output_shapes"
        value {
          list {
            shape {
              dim {
                size: -1
              }
              dim {
                size: 9
              }
            }
          }
        }
      }
      attr {
        key: "dtype"
        value {
          type: DT_FLOAT
        }
      }
      attr {
        key: "shape"
        value {
          shape {
            dim {
              size: -1
            }
            dim {
              size: 9
            }
          }
        }
      }
    }
    node {
      name: "network/truncated_normal/shape"
      op: "Const"
      attr {
        key: "_output_shapes"
        value {
          list {
            shape {
              dim {
                size: 2
              }
            }
          }
        }
      }
      attr {
        key: "dtype"
        value {
          type: DT_INT32
        }
      }
      attr {
        key: "value"
        value {
          tensor {
            dtype: DT_INT32
            tensor_shape {
              dim {
                size: 2
              }
            }
            tensor_content: "\t\000\000\000d\000\000\000"
          }
        }
      }
    }
    node {
      name: "network/truncated_normal/mean"
      op: "Const"
      attr {
        key: "_output_shapes"
        value {
          list {
            shape {
            }
          }
        }
      }
      attr {
        key: "dtype"
        value {
          type: DT_FLOAT
        }
      }
      attr {
        key: "value"
        value {
          tensor {
            dtype: DT_FLOAT
            tensor_shape {
            }
            float_val: 0.0
          }
        }
      }
    }
    node {
      name: "network/truncated_normal/stddev"
      op: "Const"
      attr {
        key: "_output_shapes"
        value {
          list {
            shape {
            }
          }
        }
      }
      attr {
        key: "dtype"
        value {
          type: DT_FLOAT
        }
      }
      attr {
        key: "value"
        value {
          tensor {
            dtype: DT_FLOAT
            tensor_shape {
            }
            float_val: 0.3333333432674408
          }
        }
      }
    }
    node {
      name: "network/truncated_normal/TruncatedNormal"
      op: "TruncatedNormal"
      input: "network/truncated_normal/shape"
      attr {
        key: "T"
        value {
          type: DT_INT32
        }
      }
      attr {
        key: "_output_shapes"
        value {
          list {
            shape {
              dim {
                size: 9
              }
              dim {
                size: 100
              }
            }
          }
        }
      }
      attr {
        key: "dtype"
        value {
          type: DT_FLOAT
        }
      }
      attr {
        key: "seed"
        value {
          i: 0
        }
      }
      attr {
        key: "seed2"
        value {
          i: 0
        }
      }
    }
    node {
      name: "network/truncated_normal/mul"
      op: "Mul"
      input: "network/truncated_normal/TruncatedNormal"
      input: "network/truncated_normal/stddev"
      attr {
        key: "T"
        value {
          type: DT_FLOAT
        }
      }
      attr {
        key: "_output_shapes"
        value {
          list {
            shape {
              dim {
                size: 9
              }
              dim {
                size: 100
              }
            }
          }
        }
      }
    }
    node {
      name: "network/truncated_normal"
      op: "Add"
      input: "network/truncated_normal/mul"
      input: "network/truncated_normal/mean"
      attr {
        key: "T"
        value {
          type: DT_FLOAT
        }
      }
      attr {
        key: "_output_shapes"
        value {
          list {
            shape {
              dim {
                size: 9
              }
              dim {
                size: 100
              }
            }
          }
        }
      }
    }
    node {
      name: "network/weights"
      op: "VarHandleOp"
      attr {
        key: "_class"
        value {
          list {
            s: "loc:@network/weights"
          }
        }
      }
      attr {
        key: "_output_shapes"
        value {
          list {
            shape {
            }
          }
        }
      }
      attr {
        key: "container"
        value {
          s: ""
        }
      }
      attr {
        key: "dtype"
        value {
          type: DT_FLOAT
        }
      }
      attr {
        key: "shape"
        value {
          shape {
            dim {
              size: 9
            }
            dim {
              size: 100
            }
          }
        }
      }
      attr {
        key: "shared_name"
        value {
          s: "network/weights"
        }
      }
    }
    node {
      name: "network/weights/IsInitialized/VarIsInitializedOp"
      op: "VarIsInitializedOp"
      input: "network/weights"
      attr {
        key: "_output_shapes"
        value {
          list {
            shape {
            }
          }
        }
      }
    }
    node {
      name: "network/weights/Assign"
      op: "AssignVariableOp"
      input: "network/weights"
      input: "network/truncated_normal"
      attr {
        key: "dtype"
        value {
          type: DT_FLOAT
        }
      }
    }
    node {
      name: "network/weights/Read/ReadVariableOp"
      op: "ReadVariableOp"
      input: "network/weights"
      attr {
        key: "_output_shapes"
        value {
          list {
            shape {
              dim {
                size: 9
              }
              dim {
                size: 100
              }
            }
          }
        }
      }
      attr {
        key: "dtype"
        value {
          type: DT_FLOAT
        }
      }
    }
    node {
      name: "network/Const"
      op: "Const"
      attr {
        key: "_output_shapes"
        value {
          list {
            shape {
              dim {
                size: 100
              }
            }
          }
        }
      }
      attr {
        key: "dtype"
        value {
          type: DT_FLOAT
        }
      }
      attr {
        key: "value"
        value {
          tensor {
            dtype: DT_FLOAT
            tensor_shape {
              dim {
                size: 100
              }
            }
            float_val: 0.009999999776482582
          }
        }
      }
    }
    node {
      name: "network/biases"
      op: "VarHandleOp"
      attr {
        key: "_class"
        value {
          list {
            s: "loc:@network/biases"
          }
        }
      }
      attr {
        key: "_output_shapes"
        value {
          list {
            shape {
            }
          }
        }
      }
      attr {
        key: "container"
        value {
          s: ""
        }
      }
      attr {
        key: "dtype"
        value {
          type: DT_FLOAT
        }
      }
      attr {
        key: "shape"
        value {
          shape {
            dim {
              size: 100
            }
          }
        }
      }
      attr {
        key: "shared_name"
        value {
          s: "network/biases"
        }
      }
    }
    node {
      name: "network/biases/IsInitialized/VarIsInitializedOp"
      op: "VarIsInitializedOp"
      input: "network/biases"
      attr {
        key: "_output_shapes"
        value {
          list {
            shape {
            }
          }
        }
      }
    }
    node {
      name: "network/biases/Assign"
      op: "AssignVariableOp"
      input: "network/biases"
      input: "network/Const"
      attr {
        key: "dtype"
        value {
          type: DT_FLOAT
        }
      }
    }
    node {
      name: "network/biases/Read/ReadVariableOp"
      op: "ReadVariableOp"
      input: "network/biases"
      attr {
        key: "_output_shapes"
        value {
          list {
            shape {
              dim {
                size: 100
              }
            }
          }
        }
      }
      attr {
        key: "dtype"
        value {
          type: DT_FLOAT
        }
      }
    }
    node {
      name: "network/MatMul/ReadVariableOp"
      op: "ReadVariableOp"
      input: "network/weights"
      attr {
        key: "_output_shapes"
        value {
          list {
            shape {
              dim {
                size: 9
              }
              dim {
                size: 100
              }
            }
          }
        }
      }
      attr {
        key: "dtype"
        value {
          type: DT_FLOAT
        }
      }
    }
    node {
      name: "network/MatMul"
      op: "MatMul"
      input: "network/Placeholder"
      input: "network/MatMul/ReadVariableOp"
      attr {
        key: "T"
        value {
          type: DT_FLOAT
        }
      }
      attr {
        key: "_output_shapes"
        value {
          list {
            shape {
              dim {
                size: -1
              }
              dim {
                size: 100
              }
            }
          }
        }
      }
      attr {
        key: "transpose_a"
        value {
          b: false
        }
      }
      attr {
        key: "transpose_b"
        value {
          b: false
        }
      }
    }
    node {
      name: "network/add/ReadVariableOp"
      op: "ReadVariableOp"
      input: "network/biases"
      attr {
        key: "_output_shapes"
        value {
          list {
            shape {
              dim {
                size: 100
              }
            }
          }
        }
      }
      attr {
        key: "dtype"
        value {
          type: DT_FLOAT
        }
      }
    }
    node {
      name: "network/add"
      op: "AddV2"
      input: "network/MatMul"
      input: "network/add/ReadVariableOp"
      attr {
        key: "T"
        value {
          type: DT_FLOAT
        }
      }
      attr {
        key: "_output_shapes"
        value {
          list {
            shape {
              dim {
                size: -1
              }
              dim {
                size: 100
              }
            }
          }
        }
      }
    }
    node {
      name: "network/Relu"
      op: "Relu"
      input: "network/add"
      attr {
        key: "T"
        value {
          type: DT_FLOAT
        }
      }
      attr {
        key: "_output_shapes"
        value {
          list {
            shape {
              dim {
                size: -1
              }
              dim {
                size: 100
              }
            }
          }
        }
      }
    }
    node {
      name: "network/truncated_normal_1/shape"
      op: "Const"
      attr {
        key: "_output_shapes"
        value {
          list {
            shape {
              dim {
                size: 2
              }
            }
          }
        }
      }
      attr {
        key: "dtype"
        value {
          type: DT_INT32
        }
      }
      attr {
        key: "value"
        value {
          tensor {
            dtype: DT_INT32
            tensor_shape {
              dim {
                size: 2
              }
            }
            tensor_content: "d\000\000\000d\000\000\000"
          }
        }
      }
    }
    node {
      name: "network/truncated_normal_1/mean"
      op: "Const"
      attr {
        key: "_output_shapes"
        value {
          list {
            shape {
            }
          }
        }
      }
      attr {
        key: "dtype"
        value {
          type: DT_FLOAT
        }
      }
      attr {
        key: "value"
        value {
          tensor {
            dtype: DT_FLOAT
            tensor_shape {
            }
            float_val: 0.0
          }
        }
      }
    }
    node {
      name: "network/truncated_normal_1/stddev"
      op: "Const"
      attr {
        key: "_output_shapes"
        value {
          list {
            shape {
            }
          }
        }
      }
      attr {
        key: "dtype"
        value {
          type: DT_FLOAT
        }
      }
      attr {
        key: "value"
        value {
          tensor {
            dtype: DT_FLOAT
            tensor_shape {
            }
            float_val: 0.10000000149011612
          }
        }
      }
    }
    node {
      name: "network/truncated_normal_1/TruncatedNormal"
      op: "TruncatedNormal"
      input: "network/truncated_normal_1/shape"
      attr {
        key: "T"
        value {
          type: DT_INT32
        }
      }
      attr {
        key: "_output_shapes"
        value {
          list {
            shape {
              dim {
                size: 100
              }
              dim {
                size: 100
              }
            }
          }
        }
      }
      attr {
        key: "dtype"
        value {
          type: DT_FLOAT
        }
      }
      attr {
        key: "seed"
        value {
          i: 0
        }
      }
      attr {
        key: "seed2"
        value {
          i: 0
        }
      }
    }
    node {
      name: "network/truncated_normal_1/mul"
      op: "Mul"
      input: "network/truncated_normal_1/TruncatedNormal"
      input: "network/truncated_normal_1/stddev"
      attr {
        key: "T"
        value {
          type: DT_FLOAT
        }
      }
      attr {
        key: "_output_shapes"
        value {
          list {
            shape {
              dim {
                size: 100
              }
              dim {
                size: 100
              }
            }
          }
        }
      }
    }
    node {
      name: "network/truncated_normal_1"
      op: "Add"
      input: "network/truncated_normal_1/mul"
      input: "network/truncated_normal_1/mean"
      attr {
        key: "T"
        value {
          type: DT_FLOAT
        }
      }
      attr {
        key: "_output_shapes"
        value {
          list {
            shape {
              dim {
                size: 100
              }
              dim {
                size: 100
              }
            }
          }
        }
      }
    }
    node {
      name: "network/weights_1"
      op: "VarHandleOp"
      attr {
        key: "_class"
        value {
          list {
            s: "loc:@network/weights_1"
          }
        }
      }
      attr {
        key: "_output_shapes"
        value {
          list {
            shape {
            }
          }
        }
      }
      attr {
        key: "container"
        value {
          s: ""
        }
      }
      attr {
        key: "dtype"
        value {
          type: DT_FLOAT
        }
      }
      attr {
        key: "shape"
        value {
          shape {
            dim {
              size: 100
            }
            dim {
              size: 100
            }
          }
        }
      }
      attr {
        key: "shared_name"
        value {
          s: "network/weights_1"
        }
      }
    }
    node {
      name: "network/weights_1/IsInitialized/VarIsInitializedOp"
      op: "VarIsInitializedOp"
      input: "network/weights_1"
      attr {
        key: "_output_shapes"
        value {
          list {
            shape {
            }
          }
        }
      }
    }
    node {
      name: "network/weights_1/Assign"
      op: "AssignVariableOp"
      input: "network/weights_1"
      input: "network/truncated_normal_1"
      attr {
        key: "dtype"
        value {
          type: DT_FLOAT
        }
      }
    }
    node {
      name: "network/weights_1/Read/ReadVariableOp"
      op: "ReadVariableOp"
      input: "network/weights_1"
      attr {
        key: "_output_shapes"
        value {
          list {
            shape {
              dim {
                size: 100
              }
              dim {
                size: 100
              }
            }
          }
        }
      }
      attr {
        key: "dtype"
        value {
          type: DT_FLOAT
        }
      }
    }
    node {
      name: "network/Const_1"
      op: "Const"
      attr {
        key: "_output_shapes"
        value {
          list {
            shape {
              dim {
                size: 100
              }
            }
          }
        }
      }
      attr {
        key: "dtype"
        value {
          type: DT_FLOAT
        }
      }
      attr {
        key: "value"
        value {
          tensor {
            dtype: DT_FLOAT
            tensor_shape {
              dim {
                size: 100
              }
            }
            float_val: 0.009999999776482582
          }
        }
      }
    }
    node {
      name: "network/biases_1"
      op: "VarHandleOp"
      attr {
        key: "_class"
        value {
          list {
            s: "loc:@network/biases_1"
          }
        }
      }
      attr {
        key: "_output_shapes"
        value {
          list {
            shape {
            }
          }
        }
      }
      attr {
        key: "container"
        value {
          s: ""
        }
      }
      attr {
        key: "dtype"
        value {
          type: DT_FLOAT
        }
      }
      attr {
        key: "shape"
        value {
          shape {
            dim {
              size: 100
            }
          }
        }
      }
      attr {
        key: "shared_name"
        value {
          s: "network/biases_1"
        }
      }
    }
    node {
      name: "network/biases_1/IsInitialized/VarIsInitializedOp"
      op: "VarIsInitializedOp"
      input: "network/biases_1"
      attr {
        key: "_output_shapes"
        value {
          list {
            shape {
            }
          }
        }
      }
    }
    node {
      name: "network/biases_1/Assign"
      op: "AssignVariableOp"
      input: "network/biases_1"
      input: "network/Const_1"
      attr {
        key: "dtype"
        value {
          type: DT_FLOAT
        }
      }
    }
    node {
      name: "network/biases_1/Read/ReadVariableOp"
      op: "ReadVariableOp"
      input: "network/biases_1"
      attr {
        key: "_output_shapes"
        value {
          list {
            shape {
              dim {
                size: 100
              }
            }
          }
        }
      }
      attr {
        key: "dtype"
        value {
          type: DT_FLOAT
        }
      }
    }
    node {
      name: "network/MatMul_1/ReadVariableOp"
      op: "ReadVariableOp"
      input: "network/weights_1"
      attr {
        key: "_output_shapes"
        value {
          list {
            shape {
              dim {
                size: 100
              }
              dim {
                size: 100
              }
            }
          }
        }
      }
      attr {
        key: "dtype"
        value {
          type: DT_FLOAT
        }
      }
    }
    node {
      name: "network/MatMul_1"
      op: "MatMul"
      input: "network/Relu"
      input: "network/MatMul_1/ReadVariableOp"
      attr {
        key: "T"
        value {
          type: DT_FLOAT
        }
      }
      attr {
        key: "_output_shapes"
        value {
          list {
            shape {
              dim {
                size: -1
              }
              dim {
                size: 100
              }
            }
          }
        }
      }
      attr {
        key: "transpose_a"
        value {
          b: false
        }
      }
      attr {
        key: "transpose_b"
        value {
          b: false
        }
      }
    }
    node {
      name: "network/add_1/ReadVariableOp"
      op: "ReadVariableOp"
      input: "network/biases_1"
      attr {
        key: "_output_shapes"
        value {
          list {
            shape {
              dim {
                size: 100
              }
            }
          }
        }
      }
      attr {
        key: "dtype"
        value {
          type: DT_FLOAT
        }
      }
    }
    node {
      name: "network/add_1"
      op: "AddV2"
      input: "network/MatMul_1"
      input: "network/add_1/ReadVariableOp"
      attr {
        key: "T"
        value {
          type: DT_FLOAT
        }
      }
      attr {
        key: "_output_shapes"
        value {
          list {
            shape {
              dim {
                size: -1
              }
              dim {
                size: 100
              }
            }
          }
        }
      }
    }
    node {
      name: "network/Relu_1"
      op: "Relu"
      input: "network/add_1"
      attr {
        key: "T"
        value {
          type: DT_FLOAT
        }
      }
      attr {
        key: "_output_shapes"
        value {
          list {
            shape {
              dim {
                size: -1
              }
              dim {
                size: 100
              }
            }
          }
        }
      }
    }
    node {
      name: "network/truncated_normal_2/shape"
      op: "Const"
      attr {
        key: "_output_shapes"
        value {
          list {
            shape {
              dim {
                size: 2
              }
            }
          }
        }
      }
      attr {
        key: "dtype"
        value {
          type: DT_INT32
        }
      }
      attr {
        key: "value"
        value {
          tensor {
            dtype: DT_INT32
            tensor_shape {
              dim {
                size: 2
              }
            }
            tensor_content: "d\000\000\000d\000\000\000"
          }
        }
      }
    }
    node {
      name: "network/truncated_normal_2/mean"
      op: "Const"
      attr {
        key: "_output_shapes"
        value {
          list {
            shape {
            }
          }
        }
      }
      attr {
        key: "dtype"
        value {
          type: DT_FLOAT
        }
      }
      attr {
        key: "value"
        value {
          tensor {
            dtype: DT_FLOAT
            tensor_shape {
            }
            float_val: 0.0
          }
        }
      }
    }
    node {
      name: "network/truncated_normal_2/stddev"
      op: "Const"
      attr {
        key: "_output_shapes"
        value {
          list {
            shape {
            }
          }
        }
      }
      attr {
        key: "dtype"
        value {
          type: DT_FLOAT
        }
      }
      attr {
        key: "value"
        value {
          tensor {
            dtype: DT_FLOAT
            tensor_shape {
            }
            float_val: 0.10000000149011612
          }
        }
      }
    }
    node {
      name: "network/truncated_normal_2/TruncatedNormal"
      op: "TruncatedNormal"
      input: "network/truncated_normal_2/shape"
      attr {
        key: "T"
        value {
          type: DT_INT32
        }
      }
      attr {
        key: "_output_shapes"
        value {
          list {
            shape {
              dim {
                size: 100
              }
              dim {
                size: 100
              }
            }
          }
        }
      }
      attr {
        key: "dtype"
        value {
          type: DT_FLOAT
        }
      }
      attr {
        key: "seed"
        value {
          i: 0
        }
      }
      attr {
        key: "seed2"
        value {
          i: 0
        }
      }
    }
    node {
      name: "network/truncated_normal_2/mul"
      op: "Mul"
      input: "network/truncated_normal_2/TruncatedNormal"
      input: "network/truncated_normal_2/stddev"
      attr {
        key: "T"
        value {
          type: DT_FLOAT
        }
      }
      attr {
        key: "_output_shapes"
        value {
          list {
            shape {
              dim {
                size: 100
              }
              dim {
                size: 100
              }
            }
          }
        }
      }
    }
    node {
      name: "network/truncated_normal_2"
      op: "Add"
      input: "network/truncated_normal_2/mul"
      input: "network/truncated_normal_2/mean"
      attr {
        key: "T"
        value {
          type: DT_FLOAT
        }
      }
      attr {
        key: "_output_shapes"
        value {
          list {
            shape {
              dim {
                size: 100
              }
              dim {
                size: 100
              }
            }
          }
        }
      }
    }
    node {
      name: "network/weights_2"
      op: "VarHandleOp"
      attr {
        key: "_class"
        value {
          list {
            s: "loc:@network/weights_2"
          }
        }
      }
      attr {
        key: "_output_shapes"
        value {
          list {
            shape {
            }
          }
        }
      }
      attr {
        key: "container"
        value {
          s: ""
        }
      }
      attr {
        key: "dtype"
        value {
          type: DT_FLOAT
        }
      }
      attr {
        key: "shape"
        value {
          shape {
            dim {
              size: 100
            }
            dim {
              size: 100
            }
          }
        }
      }
      attr {
        key: "shared_name"
        value {
          s: "network/weights_2"
        }
      }
    }
    node {
      name: "network/weights_2/IsInitialized/VarIsInitializedOp"
      op: "VarIsInitializedOp"
      input: "network/weights_2"
      attr {
        key: "_output_shapes"
        value {
          list {
            shape {
            }
          }
        }
      }
    }
    node {
      name: "network/weights_2/Assign"
      op: "AssignVariableOp"
      input: "network/weights_2"
      input: "network/truncated_normal_2"
      attr {
        key: "dtype"
        value {
          type: DT_FLOAT
        }
      }
    }
    node {
      name: "network/weights_2/Read/ReadVariableOp"
      op: "ReadVariableOp"
      input: "network/weights_2"
      attr {
        key: "_output_shapes"
        value {
          list {
            shape {
              dim {
                size: 100
              }
              dim {
                size: 100
              }
            }
          }
        }
      }
      attr {
        key: "dtype"
        value {
          type: DT_FLOAT
        }
      }
    }
    node {
      name: "network/Const_2"
      op: "Const"
      attr {
        key: "_output_shapes"
        value {
          list {
            shape {
              dim {
                size: 100
              }
            }
          }
        }
      }
      attr {
        key: "dtype"
        value {
          type: DT_FLOAT
        }
      }
      attr {
        key: "value"
        value {
          tensor {
            dtype: DT_FLOAT
            tensor_shape {
              dim {
                size: 100
              }
            }
            float_val: 0.009999999776482582
          }
        }
      }
    }
    node {
      name: "network/biases_2"
      op: "VarHandleOp"
      attr {
        key: "_class"
        value {
          list {
            s: "loc:@network/biases_2"
          }
        }
      }
      attr {
        key: "_output_shapes"
        value {
          list {
            shape {
            }
          }
        }
      }
      attr {
        key: "container"
        value {
          s: ""
        }
      }
      attr {
        key: "dtype"
        value {
          type: DT_FLOAT
        }
      }
      attr {
        key: "shape"
        value {
          shape {
            dim {
              size: 100
            }
          }
        }
      }
      attr {
        key: "shared_name"
        value {
          s: "network/biases_2"
        }
      }
    }
    node {
      name: "network/biases_2/IsInitialized/VarIsInitializedOp"
      op: "VarIsInitializedOp"
      input: "network/biases_2"
      attr {
        key: "_output_shapes"
        value {
          list {
            shape {
            }
          }
        }
      }
    }
    node {
      name: "network/biases_2/Assign"
      op: "AssignVariableOp"
      input: "network/biases_2"
      input: "network/Const_2"
      attr {
        key: "dtype"
        value {
          type: DT_FLOAT
        }
      }
    }
    node {
      name: "network/biases_2/Read/ReadVariableOp"
      op: "ReadVariableOp"
      input: "network/biases_2"
      attr {
        key: "_output_shapes"
        value {
          list {
            shape {
              dim {
                size: 100
              }
            }
          }
        }
      }
      attr {
        key: "dtype"
        value {
          type: DT_FLOAT
        }
      }
    }
    node {
      name: "network/MatMul_2/ReadVariableOp"
      op: "ReadVariableOp"
      input: "network/weights_2"
      attr {
        key: "_output_shapes"
        value {
          list {
            shape {
              dim {
                size: 100
              }
              dim {
                size: 100
              }
            }
          }
        }
      }
      attr {
        key: "dtype"
        value {
          type: DT_FLOAT
        }
      }
    }
    node {
      name: "network/MatMul_2"
      op: "MatMul"
      input: "network/Relu_1"
      input: "network/MatMul_2/ReadVariableOp"
      attr {
        key: "T"
        value {
          type: DT_FLOAT
        }
      }
      attr {
        key: "_output_shapes"
        value {
          list {
            shape {
              dim {
                size: -1
              }
              dim {
                size: 100
              }
            }
          }
        }
      }
      attr {
        key: "transpose_a"
        value {
          b: false
        }
      }
      attr {
        key: "transpose_b"
        value {
          b: false
        }
      }
    }
    node {
      name: "network/add_2/ReadVariableOp"
      op: "ReadVariableOp"
      input: "network/biases_2"
      attr {
        key: "_output_shapes"
        value {
          list {
            shape {
              dim {
                size: 100
              }
            }
          }
        }
      }
      attr {
        key: "dtype"
        value {
          type: DT_FLOAT
        }
      }
    }
    node {
      name: "network/add_2"
      op: "AddV2"
      input: "network/MatMul_2"
      input: "network/add_2/ReadVariableOp"
      attr {
        key: "T"
        value {
          type: DT_FLOAT
        }
      }
      attr {
        key: "_output_shapes"
        value {
          list {
            shape {
              dim {
                size: -1
              }
              dim {
                size: 100
              }
            }
          }
        }
      }
    }
    node {
      name: "network/Relu_2"
      op: "Relu"
      input: "network/add_2"
      attr {
        key: "T"
        value {
          type: DT_FLOAT
        }
      }
      attr {
        key: "_output_shapes"
        value {
          list {
            shape {
              dim {
                size: -1
              }
              dim {
                size: 100
              }
            }
          }
        }
      }
    }
    node {
      name: "network/truncated_normal_3/shape"
      op: "Const"
      attr {
        key: "_output_shapes"
        value {
          list {
            shape {
              dim {
                size: 2
              }
            }
          }
        }
      }
      attr {
        key: "dtype"
        value {
          type: DT_INT32
        }
      }
      attr {
        key: "value"
        value {
          tensor {
            dtype: DT_INT32
            tensor_shape {
              dim {
                size: 2
              }
            }
            tensor_content: "d\000\000\000\003\000\000\000"
          }
        }
      }
    }
    node {
      name: "network/truncated_normal_3/mean"
      op: "Const"
      attr {
        key: "_output_shapes"
        value {
          list {
            shape {
            }
          }
        }
      }
      attr {
        key: "dtype"
        value {
          type: DT_FLOAT
        }
      }
      attr {
        key: "value"
        value {
          tensor {
            dtype: DT_FLOAT
            tensor_shape {
            }
            float_val: 0.0
          }
        }
      }
    }
    node {
      name: "network/truncated_normal_3/stddev"
      op: "Const"
      attr {
        key: "_output_shapes"
        value {
          list {
            shape {
            }
          }
        }
      }
      attr {
        key: "dtype"
        value {
          type: DT_FLOAT
        }
      }
      attr {
        key: "value"
        value {
          tensor {
            dtype: DT_FLOAT
            tensor_shape {
            }
            float_val: 0.5773502588272095
          }
        }
      }
    }
    node {
      name: "network/truncated_normal_3/TruncatedNormal"
      op: "TruncatedNormal"
      input: "network/truncated_normal_3/shape"
      attr {
        key: "T"
        value {
          type: DT_INT32
        }
      }
      attr {
        key: "_output_shapes"
        value {
          list {
            shape {
              dim {
                size: 100
              }
              dim {
                size: 3
              }
            }
          }
        }
      }
      attr {
        key: "dtype"
        value {
          type: DT_FLOAT
        }
      }
      attr {
        key: "seed"
        value {
          i: 0
        }
      }
      attr {
        key: "seed2"
        value {
          i: 0
        }
      }
    }
    node {
      name: "network/truncated_normal_3/mul"
      op: "Mul"
      input: "network/truncated_normal_3/TruncatedNormal"
      input: "network/truncated_normal_3/stddev"
      attr {
        key: "T"
        value {
          type: DT_FLOAT
        }
      }
      attr {
        key: "_output_shapes"
        value {
          list {
            shape {
              dim {
                size: 100
              }
              dim {
                size: 3
              }
            }
          }
        }
      }
    }
    node {
      name: "network/truncated_normal_3"
      op: "Add"
      input: "network/truncated_normal_3/mul"
      input: "network/truncated_normal_3/mean"
      attr {
        key: "T"
        value {
          type: DT_FLOAT
        }
      }
      attr {
        key: "_output_shapes"
        value {
          list {
            shape {
              dim {
                size: 100
              }
              dim {
                size: 3
              }
            }
          }
        }
      }
    }
    node {
      name: "network/output_weights"
      op: "VarHandleOp"
      attr {
        key: "_class"
        value {
          list {
            s: "loc:@network/output_weights"
          }
        }
      }
      attr {
        key: "_output_shapes"
        value {
          list {
            shape {
            }
          }
        }
      }
      attr {
        key: "container"
        value {
          s: ""
        }
      }
      attr {
        key: "dtype"
        value {
          type: DT_FLOAT
        }
      }
      attr {
        key: "shape"
        value {
          shape {
            dim {
              size: 100
            }
            dim {
              size: 3
            }
          }
        }
      }
      attr {
        key: "shared_name"
        value {
          s: "network/output_weights"
        }
      }
    }
    node {
      name: "network/output_weights/IsInitialized/VarIsInitializedOp"
      op: "VarIsInitializedOp"
      input: "network/output_weights"
      attr {
        key: "_output_shapes"
        value {
          list {
            shape {
            }
          }
        }
      }
    }
    node {
      name: "network/output_weights/Assign"
      op: "AssignVariableOp"
      input: "network/output_weights"
      input: "network/truncated_normal_3"
      attr {
        key: "dtype"
        value {
          type: DT_FLOAT
        }
      }
    }
    node {
      name: "network/output_weights/Read/ReadVariableOp"
      op: "ReadVariableOp"
      input: "network/output_weights"
      attr {
        key: "_output_shapes"
        value {
          list {
            shape {
              dim {
                size: 100
              }
              dim {
                size: 3
              }
            }
          }
        }
      }
      attr {
        key: "dtype"
        value {
          type: DT_FLOAT
        }
      }
    }
    node {
      name: "network/Const_3"
      op: "Const"
      attr {
        key: "_output_shapes"
        value {
          list {
            shape {
              dim {
                size: 3
              }
            }
          }
        }
      }
      attr {
        key: "dtype"
        value {
          type: DT_FLOAT
        }
      }
      attr {
        key: "value"
        value {
          tensor {
            dtype: DT_FLOAT
            tensor_shape {
              dim {
                size: 3
              }
            }
            float_val: 0.009999999776482582
          }
        }
      }
    }
    node {
      name: "network/output_bias"
      op: "VarHandleOp"
      attr {
        key: "_class"
        value {
          list {
            s: "loc:@network/output_bias"
          }
        }
      }
      attr {
        key: "_output_shapes"
        value {
          list {
            shape {
            }
          }
        }
      }
      attr {
        key: "container"
        value {
          s: ""
        }
      }
      attr {
        key: "dtype"
        value {
          type: DT_FLOAT
        }
      }
      attr {
        key: "shape"
        value {
          shape {
            dim {
              size: 3
            }
          }
        }
      }
      attr {
        key: "shared_name"
        value {
          s: "network/output_bias"
        }
      }
    }
    node {
      name: "network/output_bias/IsInitialized/VarIsInitializedOp"
      op: "VarIsInitializedOp"
      input: "network/output_bias"
      attr {
        key: "_output_shapes"
        value {
          list {
            shape {
            }
          }
        }
      }
    }
    node {
      name: "network/output_bias/Assign"
      op: "AssignVariableOp"
      input: "network/output_bias"
      input: "network/Const_3"
      attr {
        key: "dtype"
        value {
          type: DT_FLOAT
        }
      }
    }
    node {
      name: "network/output_bias/Read/ReadVariableOp"
      op: "ReadVariableOp"
      input: "network/output_bias"
      attr {
        key: "_output_shapes"
        value {
          list {
            shape {
              dim {
                size: 3
              }
            }
          }
        }
      }
      attr {
        key: "dtype"
        value {
          type: DT_FLOAT
        }
      }
    }
    node {
      name: "network/MatMul_3/ReadVariableOp"
      op: "ReadVariableOp"
      input: "network/output_weights"
      attr {
        key: "_output_shapes"
        value {
          list {
            shape {
              dim {
                size: 100
              }
              dim {
                size: 3
              }
            }
          }
        }
      }
      attr {
        key: "dtype"
        value {
          type: DT_FLOAT
        }
      }
    }
    node {
      name: "network/MatMul_3"
      op: "MatMul"
      input: "network/Relu_2"
      input: "network/MatMul_3/ReadVariableOp"
      attr {
        key: "T"
        value {
          type: DT_FLOAT
        }
      }
      attr {
        key: "_output_shapes"
        value {
          list {
            shape {
              dim {
                size: -1
              }
              dim {
                size: 3
              }
            }
          }
        }
      }
      attr {
        key: "transpose_a"
        value {
          b: false
        }
      }
      attr {
        key: "transpose_b"
        value {
          b: false
        }
      }
    }
    node {
      name: "network/add_3/ReadVariableOp"
      op: "ReadVariableOp"
      input: "network/output_bias"
      attr {
        key: "_output_shapes"
        value {
          list {
            shape {
              dim {
                size: 3
              }
            }
          }
        }
      }
      attr {
        key: "dtype"
        value {
          type: DT_FLOAT
        }
      }
    }
    node {
      name: "network/add_3"
      op: "AddV2"
      input: "network/MatMul_3"
      input: "network/add_3/ReadVariableOp"
      attr {
        key: "T"
        value {
          type: DT_FLOAT
        }
      }
      attr {
        key: "_output_shapes"
        value {
          list {
            shape {
              dim {
                size: -1
              }
              dim {
                size: 3
              }
            }
          }
        }
      }
    }
    node {
      name: "network/Softmax"
      op: "Softmax"
      input: "network/add_3"
      attr {
        key: "T"
        value {
          type: DT_FLOAT
        }
      }
      attr {
        key: "_output_shapes"
        value {
          list {
            shape {
              dim {
                size: -1
              }
              dim {
                size: 3
              }
            }
          }
        }
      }
    }
    node {
      name: "Mul"
      op: "Mul"
      input: "actual_move"
      input: "network/Softmax"
      attr {
        key: "T"
        value {
          type: DT_FLOAT
        }
      }
      attr {
        key: "_output_shapes"
        value {
          list {
            shape {
              dim {
                size: -1
              }
              dim {
                size: 3
              }
            }
          }
        }
      }
    }
    node {
      name: "Sum/reduction_indices"
      op: "Const"
      attr {
        key: "_output_shapes"
        value {
          list {
            shape {
            }
          }
        }
      }
      attr {
        key: "dtype"
        value {
          type: DT_INT32
        }
      }
      attr {
        key: "value"
        value {
          tensor {
            dtype: DT_INT32
            tensor_shape {
            }
            int_val: 1
          }
        }
      }
    }
    node {
      name: "Sum"
      op: "Sum"
      input: "Mul"
      input: "Sum/reduction_indices"
      attr {
        key: "T"
        value {
          type: DT_FLOAT
        }
      }
      attr {
        key: "Tidx"
        value {
          type: DT_INT32
        }
      }
      attr {
        key: "_output_shapes"
        value {
          list {
            shape {
              dim {
                size: -1
              }
            }
          }
        }
      }
      attr {
        key: "keep_dims"
        value {
          b: false
        }
      }
    }
    node {
      name: "Log"
      op: "Log"
      input: "Sum"
      attr {
        key: "T"
        value {
          type: DT_FLOAT
        }
      }
      attr {
        key: "_output_shapes"
        value {
          list {
            shape {
              dim {
                size: -1
              }
            }
          }
        }
      }
    }
    node {
      name: "mul_1"
      op: "Mul"
      input: "Log"
      input: "reward"
      attr {
        key: "T"
        value {
          type: DT_FLOAT
        }
      }
      attr {
        key: "_output_shapes"
        value {
          list {
            shape {
              dim {
                size: -1
              }
            }
          }
        }
      }
    }
    node {
      name: "Neg"
      op: "Neg"
      input: "mul_1"
      attr {
        key: "T"
        value {
          type: DT_FLOAT
        }
      }
      attr {
        key: "_output_shapes"
        value {
          list {
            shape {
              dim {
                size: -1
              }
            }
          }
        }
      }
    }
    node {
      name: "gradients/Shape"
      op: "Shape"
      input: "Neg"
      attr {
        key: "T"
        value {
          type: DT_FLOAT
        }
      }
      attr {
        key: "_output_shapes"
        value {
          list {
            shape {
              dim {
                size: 1
              }
            }
          }
        }
      }
      attr {
        key: "out_type"
        value {
          type: DT_INT32
        }
      }
    }
    node {
      name: "gradients/grad_ys_0"
      op: "Const"
      attr {
        key: "_output_shapes"
        value {
          list {
            shape {
            }
          }
        }
      }
      attr {
        key: "dtype"
        value {
          type: DT_FLOAT
        }
      }
      attr {
        key: "value"
        value {
          tensor {
            dtype: DT_FLOAT
            tensor_shape {
            }
            float_val: 1.0
          }
        }
      }
    }
    node {
      name: "gradients/Fill"
      op: "Fill"
      input: "gradients/Shape"
      input: "gradients/grad_ys_0"
      attr {
        key: "T"
        value {
          type: DT_FLOAT
        }
      }
      attr {
        key: "_output_shapes"
        value {
          list {
            shape {
              dim {
                size: -1
              }
            }
          }
        }
      }
      attr {
        key: "index_type"
        value {
          type: DT_INT32
        }
      }
    }
    node {
      name: "gradients/Neg_grad/Neg"
      op: "Neg"
      input: "gradients/Fill"
      attr {
        key: "T"
        value {
          type: DT_FLOAT
        }
      }
      attr {
        key: "_output_shapes"
        value {
          list {
            shape {
              dim {
                size: -1
              }
            }
          }
        }
      }
    }
    node {
      name: "gradients/mul_1_grad/Shape"
      op: "Shape"
      input: "Log"
      attr {
        key: "T"
        value {
          type: DT_FLOAT
        }
      }
      attr {
        key: "_output_shapes"
        value {
          list {
            shape {
              dim {
                size: 1
              }
            }
          }
        }
      }
      attr {
        key: "out_type"
        value {
          type: DT_INT32
        }
      }
    }
    node {
      name: "gradients/mul_1_grad/Shape_1"
      op: "Shape"
      input: "reward"
      attr {
        key: "T"
        value {
          type: DT_FLOAT
        }
      }
      attr {
        key: "_output_shapes"
        value {
          list {
            shape {
              dim {
                size: 1
              }
            }
          }
        }
      }
      attr {
        key: "out_type"
        value {
          type: DT_INT32
        }
      }
    }
    node {
      name: "gradients/mul_1_grad/BroadcastGradientArgs"
      op: "BroadcastGradientArgs"
      input: "gradients/mul_1_grad/Shape"
      input: "gradients/mul_1_grad/Shape_1"
      attr {
        key: "T"
        value {
          type: DT_INT32
        }
      }
      attr {
        key: "_output_shapes"
        value {
          list {
            shape {
              dim {
                size: -1
              }
            }
            shape {
              dim {
                size: -1
              }
            }
          }
        }
      }
    }
    node {
      name: "gradients/mul_1_grad/Mul"
      op: "Mul"
      input: "gradients/Neg_grad/Neg"
      input: "reward"
      attr {
        key: "T"
        value {
          type: DT_FLOAT
        }
      }
      attr {
        key: "_output_shapes"
        value {
          list {
            shape {
              dim {
                size: -1
              }
            }
          }
        }
      }
    }
    node {
      name: "gradients/mul_1_grad/Sum"
      op: "Sum"
      input: "gradients/mul_1_grad/Mul"
      input: "gradients/mul_1_grad/BroadcastGradientArgs"
      attr {
        key: "T"
        value {
          type: DT_FLOAT
        }
      }
      attr {
        key: "Tidx"
        value {
          type: DT_INT32
        }
      }
      attr {
        key: "_output_shapes"
        value {
          list {
            shape {
              unknown_rank: true
            }
          }
        }
      }
      attr {
        key: "keep_dims"
        value {
          b: false
        }
      }
    }
    node {
      name: "gradients/mul_1_grad/Reshape"
      op: "Reshape"
      input: "gradients/mul_1_grad/Sum"
      input: "gradients/mul_1_grad/Shape"
      attr {
        key: "T"
        value {
          type: DT_FLOAT
        }
      }
      attr {
        key: "Tshape"
        value {
          type: DT_INT32
        }
      }
      attr {
        key: "_output_shapes"
        value {
          list {
            shape {
              dim {
                size: -1
              }
            }
          }
        }
      }
    }
    node {
      name: "gradients/mul_1_grad/Mul_1"
      op: "Mul"
      input: "Log"
      input: "gradients/Neg_grad/Neg"
      attr {
        key: "T"
        value {
          type: DT_FLOAT
        }
      }
      attr {
        key: "_output_shapes"
        value {
          list {
            shape {
              dim {
                size: -1
              }
            }
          }
        }
      }
    }
    node {
      name: "gradients/mul_1_grad/Sum_1"
      op: "Sum"
      input: "gradients/mul_1_grad/Mul_1"
      input: "gradients/mul_1_grad/BroadcastGradientArgs:1"
      attr {
        key: "T"
        value {
          type: DT_FLOAT
        }
      }
      attr {
        key: "Tidx"
        value {
          type: DT_INT32
        }
      }
      attr {
        key: "_output_shapes"
        value {
          list {
            shape {
              unknown_rank: true
            }
          }
        }
      }
      attr {
        key: "keep_dims"
        value {
          b: false
        }
      }
    }
    node {
      name: "gradients/mul_1_grad/Reshape_1"
      op: "Reshape"
      input: "gradients/mul_1_grad/Sum_1"
      input: "gradients/mul_1_grad/Shape_1"
      attr {
        key: "T"
        value {
          type: DT_FLOAT
        }
      }
      attr {
        key: "Tshape"
        value {
          type: DT_INT32
        }
      }
      attr {
        key: "_output_shapes"
        value {
          list {
            shape {
              dim {
                size: -1
              }
            }
          }
        }
      }
    }
    node {
      name: "gradients/mul_1_grad/tuple/group_deps"
      op: "NoOp"
      input: "^gradients/mul_1_grad/Reshape"
      input: "^gradients/mul_1_grad/Reshape_1"
    }
    node {
      name: "gradients/mul_1_grad/tuple/control_dependency"
      op: "Identity"
      input: "gradients/mul_1_grad/Reshape"
      input: "^gradients/mul_1_grad/tuple/group_deps"
      attr {
        key: "T"
        value {
          type: DT_FLOAT
        }
      }
      attr {
        key: "_class"
        value {
          list {
            s: "loc:@gradients/mul_1_grad/Reshape"
          }
        }
      }
      attr {
        key: "_output_shapes"
        value {
          list {
            shape {
              dim {
                size: -1
              }
            }
          }
        }
      }
    }
    node {
      name: "gradients/mul_1_grad/tuple/control_dependency_1"
      op: "Identity"
      input: "gradients/mul_1_grad/Reshape_1"
      input: "^gradients/mul_1_grad/tuple/group_deps"
      attr {
        key: "T"
        value {
          type: DT_FLOAT
        }
      }
      attr {
        key: "_class"
        value {
          list {
            s: "loc:@gradients/mul_1_grad/Reshape_1"
          }
        }
      }
      attr {
        key: "_output_shapes"
        value {
          list {
            shape {
              dim {
                size: -1
              }
            }
          }
        }
      }
    }
    node {
      name: "gradients/Log_grad/Reciprocal"
      op: "Reciprocal"
      input: "Sum"
      input: "^gradients/mul_1_grad/tuple/control_dependency"
      attr {
        key: "T"
        value {
          type: DT_FLOAT
        }
      }
      attr {
        key: "_output_shapes"
        value {
          list {
            shape {
              dim {
                size: -1
              }
            }
          }
        }
      }
    }
    node {
      name: "gradients/Log_grad/mul"
      op: "Mul"
      input: "gradients/mul_1_grad/tuple/control_dependency"
      input: "gradients/Log_grad/Reciprocal"
      attr {
        key: "T"
        value {
          type: DT_FLOAT
        }
      }
      attr {
        key: "_output_shapes"
        value {
          list {
            shape {
              dim {
                size: -1
              }
            }
          }
        }
      }
    }
    node {
      name: "gradients/Sum_grad/Shape"
      op: "Shape"
      input: "Mul"
      attr {
        key: "T"
        value {
          type: DT_FLOAT
        }
      }
      attr {
        key: "_output_shapes"
        value {
          list {
            shape {
              dim {
                size: 2
              }
            }
          }
        }
      }
      attr {
        key: "out_type"
        value {
          type: DT_INT32
        }
      }
    }
    node {
      name: "gradients/Sum_grad/Size"
      op: "Const"
      attr {
        key: "_class"
        value {
          list {
            s: "loc:@gradients/Sum_grad/Shape"
          }
        }
      }
      attr {
        key: "_output_shapes"
        value {
          list {
            shape {
            }
          }
        }
      }
      attr {
        key: "dtype"
        value {
          type: DT_INT32
        }
      }
      attr {
        key: "value"
        value {
          tensor {
            dtype: DT_INT32
            tensor_shape {
            }
            int_val: 2
          }
        }
      }
    }
    node {
      name: "gradients/Sum_grad/add"
      op: "AddV2"
      input: "Sum/reduction_indices"
      input: "gradients/Sum_grad/Size"
      attr {
        key: "T"
        value {
          type: DT_INT32
        }
      }
      attr {
        key: "_class"
        value {
          list {
            s: "loc:@gradients/Sum_grad/Shape"
          }
        }
      }
      attr {
        key: "_output_shapes"
        value {
          list {
            shape {
            }
          }
        }
      }
    }
    node {
      name: "gradients/Sum_grad/mod"
      op: "FloorMod"
      input: "gradients/Sum_grad/add"
      input: "gradients/Sum_grad/Size"
      attr {
        key: "T"
        value {
          type: DT_INT32
        }
      }
      attr {
        key: "_class"
        value {
          list {
            s: "loc:@gradients/Sum_grad/Shape"
          }
        }
      }
      attr {
        key: "_output_shapes"
        value {
          list {
            shape {
            }
          }
        }
      }
    }
    node {
      name: "gradients/Sum_grad/Shape_1"
      op: "Const"
      attr {
        key: "_class"
        value {
          list {
            s: "loc:@gradients/Sum_grad/Shape"
          }
        }
      }
      attr {
        key: "_output_shapes"
        value {
          list {
            shape {
              dim {
              }
            }
          }
        }
      }
      attr {
        key: "dtype"
        value {
          type: DT_INT32
        }
      }
      attr {
        key: "value"
        value {
          tensor {
            dtype: DT_INT32
            tensor_shape {
              dim {
              }
            }
          }
        }
      }
    }
    node {
      name: "gradients/Sum_grad/range/start"
      op: "Const"
      attr {
        key: "_class"
        value {
          list {
            s: "loc:@gradients/Sum_grad/Shape"
          }
        }
      }
      attr {
        key: "_output_shapes"
        value {
          list {
            shape {
            }
          }
        }
      }
      attr {
        key: "dtype"
        value {
          type: DT_INT32
        }
      }
      attr {
        key: "value"
        value {
          tensor {
            dtype: DT_INT32
            tensor_shape {
            }
            int_val: 0
          }
        }
      }
    }
    node {
      name: "gradients/Sum_grad/range/delta"
      op: "Const"
      attr {
        key: "_class"
        value {
          list {
            s: "loc:@gradients/Sum_grad/Shape"
          }
        }
      }
      attr {
        key: "_output_shapes"
        value {
          list {
            shape {
            }
          }
        }
      }
      attr {
        key: "dtype"
        value {
          type: DT_INT32
        }
      }
      attr {
        key: "value"
        value {
          tensor {
            dtype: DT_INT32
            tensor_shape {
            }
            int_val: 1
          }
        }
      }
    }
    node {
      name: "gradients/Sum_grad/range"
      op: "Range"
      input: "gradients/Sum_grad/range/start"
      input: "gradients/Sum_grad/Size"
      input: "gradients/Sum_grad/range/delta"
      attr {
        key: "Tidx"
        value {
          type: DT_INT32
        }
      }
      attr {
        key: "_class"
        value {
          list {
            s: "loc:@gradients/Sum_grad/Shape"
          }
        }
      }
      attr {
        key: "_output_shapes"
        value {
          list {
            shape {
              dim {
                size: 2
              }
            }
          }
        }
      }
    }
    node {
      name: "gradients/Sum_grad/Fill/value"
      op: "Const"
      attr {
        key: "_class"
        value {
          list {
            s: "loc:@gradients/Sum_grad/Shape"
          }
        }
      }
      attr {
        key: "_output_shapes"
        value {
          list {
            shape {
            }
          }
        }
      }
      attr {
        key: "dtype"
        value {
          type: DT_INT32
        }
      }
      attr {
        key: "value"
        value {
          tensor {
            dtype: DT_INT32
            tensor_shape {
            }
            int_val: 1
          }
        }
      }
    }
    node {
      name: "gradients/Sum_grad/Fill"
      op: "Fill"
      input: "gradients/Sum_grad/Shape_1"
      input: "gradients/Sum_grad/Fill/value"
      attr {
        key: "T"
        value {
          type: DT_INT32
        }
      }
      attr {
        key: "_class"
        value {
          list {
            s: "loc:@gradients/Sum_grad/Shape"
          }
        }
      }
      attr {
        key: "_output_shapes"
        value {
          list {
            shape {
            }
          }
        }
      }
      attr {
        key: "index_type"
        value {
          type: DT_INT32
        }
      }
    }
    node {
      name: "gradients/Sum_grad/DynamicStitch"
      op: "DynamicStitch"
      input: "gradients/Sum_grad/range"
      input: "gradients/Sum_grad/mod"
      input: "gradients/Sum_grad/Shape"
      input: "gradients/Sum_grad/Fill"
      attr {
        key: "N"
        value {
          i: 2
        }
      }
      attr {
        key: "T"
        value {
          type: DT_INT32
        }
      }
      attr {
        key: "_class"
        value {
          list {
            s: "loc:@gradients/Sum_grad/Shape"
          }
        }
      }
      attr {
        key: "_output_shapes"
        value {
          list {
            shape {
              dim {
                size: 2
              }
            }
          }
        }
      }
    }
    node {
      name: "gradients/Sum_grad/Reshape"
      op: "Reshape"
      input: "gradients/Log_grad/mul"
      input: "gradients/Sum_grad/DynamicStitch"
      attr {
        key: "T"
        value {
          type: DT_FLOAT
        }
      }
      attr {
        key: "Tshape"
        value {
          type: DT_INT32
        }
      }
      attr {
        key: "_output_shapes"
        value {
          list {
            shape {
              dim {
                size: -1
              }
              dim {
                size: -1
              }
            }
          }
        }
      }
    }
    node {
      name: "gradients/Sum_grad/BroadcastTo"
      op: "BroadcastTo"
      input: "gradients/Sum_grad/Reshape"
      input: "gradients/Sum_grad/Shape"
      attr {
        key: "T"
        value {
          type: DT_FLOAT
        }
      }
      attr {
        key: "Tidx"
        value {
          type: DT_INT32
        }
      }
      attr {
        key: "_output_shapes"
        value {
          list {
            shape {
              dim {
                size: -1
              }
              dim {
                size: 3
              }
            }
          }
        }
      }
    }
    node {
      name: "gradients/Mul_grad/Shape"
      op: "Shape"
      input: "actual_move"
      attr {
        key: "T"
        value {
          type: DT_FLOAT
        }
      }
      attr {
        key: "_output_shapes"
        value {
          list {
            shape {
              dim {
                size: 2
              }
            }
          }
        }
      }
      attr {
        key: "out_type"
        value {
          type: DT_INT32
        }
      }
    }
    node {
      name: "gradients/Mul_grad/Shape_1"
      op: "Shape"
      input: "network/Softmax"
      attr {
        key: "T"
        value {
          type: DT_FLOAT
        }
      }
      attr {
        key: "_output_shapes"
        value {
          list {
            shape {
              dim {
                size: 2
              }
            }
          }
        }
      }
      attr {
        key: "out_type"
        value {
          type: DT_INT32
        }
      }
    }
    node {
      name: "gradients/Mul_grad/BroadcastGradientArgs"
      op: "BroadcastGradientArgs"
      input: "gradients/Mul_grad/Shape"
      input: "gradients/Mul_grad/Shape_1"
      attr {
        key: "T"
        value {
          type: DT_INT32
        }
      }
      attr {
        key: "_output_shapes"
        value {
          list {
            shape {
              dim {
                size: -1
              }
            }
            shape {
              dim {
                size: -1
              }
            }
          }
        }
      }
    }
    node {
      name: "gradients/Mul_grad/Mul"
      op: "Mul"
      input: "gradients/Sum_grad/BroadcastTo"
      input: "network/Softmax"
      attr {
        key: "T"
        value {
          type: DT_FLOAT
        }
      }
      attr {
        key: "_output_shapes"
        value {
          list {
            shape {
              dim {
                size: -1
              }
              dim {
                size: 3
              }
            }
          }
        }
      }
    }
    node {
      name: "gradients/Mul_grad/Sum"
      op: "Sum"
      input: "gradients/Mul_grad/Mul"
      input: "gradients/Mul_grad/BroadcastGradientArgs"
      attr {
        key: "T"
        value {
          type: DT_FLOAT
        }
      }
      attr {
        key: "Tidx"
        value {
          type: DT_INT32
        }
      }
      attr {
        key: "_output_shapes"
        value {
          list {
            shape {
              unknown_rank: true
            }
          }
        }
      }
      attr {
        key: "keep_dims"
        value {
          b: false
        }
      }
    }
    node {
      name: "gradients/Mul_grad/Reshape"
      op: "Reshape"
      input: "gradients/Mul_grad/Sum"
      input: "gradients/Mul_grad/Shape"
      attr {
        key: "T"
        value {
          type: DT_FLOAT
        }
      }
      attr {
        key: "Tshape"
        value {
          type: DT_INT32
        }
      }
      attr {
        key: "_output_shapes"
        value {
          list {
            shape {
              dim {
                size: -1
              }
              dim {
                size: 3
              }
            }
          }
        }
      }
    }
    node {
      name: "gradients/Mul_grad/Mul_1"
      op: "Mul"
      input: "actual_move"
      input: "gradients/Sum_grad/BroadcastTo"
      attr {
        key: "T"
        value {
          type: DT_FLOAT
        }
      }
      attr {
        key: "_output_shapes"
        value {
          list {
            shape {
              dim {
                size: -1
              }
              dim {
                size: 3
              }
            }
          }
        }
      }
    }
    node {
      name: "gradients/Mul_grad/Sum_1"
      op: "Sum"
      input: "gradients/Mul_grad/Mul_1"
      input: "gradients/Mul_grad/BroadcastGradientArgs:1"
      attr {
        key: "T"
        value {
          type: DT_FLOAT
        }
      }
      attr {
        key: "Tidx"
        value {
          type: DT_INT32
        }
      }
      attr {
        key: "_output_shapes"
        value {
          list {
            shape {
              unknown_rank: true
            }
          }
        }
      }
      attr {
        key: "keep_dims"
        value {
          b: false
        }
      }
    }
    node {
      name: "gradients/Mul_grad/Reshape_1"
      op: "Reshape"
      input: "gradients/Mul_grad/Sum_1"
      input: "gradients/Mul_grad/Shape_1"
      attr {
        key: "T"
        value {
          type: DT_FLOAT
        }
      }
      attr {
        key: "Tshape"
        value {
          type: DT_INT32
        }
      }
      attr {
        key: "_output_shapes"
        value {
          list {
            shape {
              dim {
                size: -1
              }
              dim {
                size: 3
              }
            }
          }
        }
      }
    }
    node {
      name: "gradients/Mul_grad/tuple/group_deps"
      op: "NoOp"
      input: "^gradients/Mul_grad/Reshape"
      input: "^gradients/Mul_grad/Reshape_1"
    }
    node {
      name: "gradients/Mul_grad/tuple/control_dependency"
      op: "Identity"
      input: "gradients/Mul_grad/Reshape"
      input: "^gradients/Mul_grad/tuple/group_deps"
      attr {
        key: "T"
        value {
          type: DT_FLOAT
        }
      }
      attr {
        key: "_class"
        value {
          list {
            s: "loc:@gradients/Mul_grad/Reshape"
          }
        }
      }
      attr {
        key: "_output_shapes"
        value {
          list {
            shape {
              dim {
                size: -1
              }
              dim {
                size: 3
              }
            }
          }
        }
      }
    }
    node {
      name: "gradients/Mul_grad/tuple/control_dependency_1"
      op: "Identity"
      input: "gradients/Mul_grad/Reshape_1"
      input: "^gradients/Mul_grad/tuple/group_deps"
      attr {
        key: "T"
        value {
          type: DT_FLOAT
        }
      }
      attr {
        key: "_class"
        value {
          list {
            s: "loc:@gradients/Mul_grad/Reshape_1"
          }
        }
      }
      attr {
        key: "_output_shapes"
        value {
          list {
            shape {
              dim {
                size: -1
              }
              dim {
                size: 3
              }
            }
          }
        }
      }
    }
    node {
      name: "gradients/network/Softmax_grad/mul"
      op: "Mul"
      input: "gradients/Mul_grad/tuple/control_dependency_1"
      input: "network/Softmax"
      attr {
        key: "T"
        value {
          type: DT_FLOAT
        }
      }
      attr {
        key: "_output_shapes"
        value {
          list {
            shape {
              dim {
                size: -1
              }
              dim {
                size: 3
              }
            }
          }
        }
      }
    }
    node {
      name: "gradients/network/Softmax_grad/Sum/reduction_indices"
      op: "Const"
      attr {
        key: "_output_shapes"
        value {
          list {
            shape {
            }
          }
        }
      }
      attr {
        key: "dtype"
        value {
          type: DT_INT32
        }
      }
      attr {
        key: "value"
        value {
          tensor {
            dtype: DT_INT32
            tensor_shape {
            }
            int_val: -1
          }
        }
      }
    }
    node {
      name: "gradients/network/Softmax_grad/Sum"
      op: "Sum"
      input: "gradients/network/Softmax_grad/mul"
      input: "gradients/network/Softmax_grad/Sum/reduction_indices"
      attr {
        key: "T"
        value {
          type: DT_FLOAT
        }
      }
      attr {
        key: "Tidx"
        value {
          type: DT_INT32
        }
      }
      attr {
        key: "_output_shapes"
        value {
          list {
            shape {
              dim {
                size: -1
              }
              dim {
                size: 1
              }
            }
          }
        }
      }
      attr {
        key: "keep_dims"
        value {
          b: true
        }
      }
    }
    node {
      name: "gradients/network/Softmax_grad/sub"
      op: "Sub"
      input: "gradients/Mul_grad/tuple/control_dependency_1"
      input: "gradients/network/Softmax_grad/Sum"
      attr {
        key: "T"
        value {
          type: DT_FLOAT
        }
      }
      attr {
        key: "_output_shapes"
        value {
          list {
            shape {
              dim {
                size: -1
              }
              dim {
                size: 3
              }
            }
          }
        }
      }
    }
    node {
      name: "gradients/network/Softmax_grad/mul_1"
      op: "Mul"
      input: "gradients/network/Softmax_grad/sub"
      input: "network/Softmax"
      attr {
        key: "T"
        value {
          type: DT_FLOAT
        }
      }
      attr {
        key: "_output_shapes"
        value {
          list {
            shape {
              dim {
                size: -1
              }
              dim {
                size: 3
              }
            }
          }
        }
      }
    }
    node {
      name: "gradients/network/add_3_grad/Shape"
      op: "Shape"
      input: "network/MatMul_3"
      attr {
        key: "T"
        value {
          type: DT_FLOAT
        }
      }
      attr {
        key: "_output_shapes"
        value {
          list {
            shape {
              dim {
                size: 2
              }
            }
          }
        }
      }
      attr {
        key: "out_type"
        value {
          type: DT_INT32
        }
      }
    }
    node {
      name: "gradients/network/add_3_grad/Shape_1"
      op: "Shape"
      input: "network/add_3/ReadVariableOp"
      attr {
        key: "T"
        value {
          type: DT_FLOAT
        }
      }
      attr {
        key: "_output_shapes"
        value {
          list {
            shape {
              dim {
                size: 1
              }
            }
          }
        }
      }
      attr {
        key: "out_type"
        value {
          type: DT_INT32
        }
      }
    }
    node {
      name: "gradients/network/add_3_grad/BroadcastGradientArgs"
      op: "BroadcastGradientArgs"
      input: "gradients/network/add_3_grad/Shape"
      input: "gradients/network/add_3_grad/Shape_1"
      attr {
        key: "T"
        value {
          type: DT_INT32
        }
      }
      attr {
        key: "_output_shapes"
        value {
          list {
            shape {
              dim {
                size: -1
              }
            }
            shape {
              dim {
                size: -1
              }
            }
          }
        }
      }
    }
    node {
      name: "gradients/network/add_3_grad/Sum"
      op: "Sum"
      input: "gradients/network/Softmax_grad/mul_1"
      input: "gradients/network/add_3_grad/BroadcastGradientArgs"
      attr {
        key: "T"
        value {
          type: DT_FLOAT
        }
      }
      attr {
        key: "Tidx"
        value {
          type: DT_INT32
        }
      }
      attr {
        key: "_output_shapes"
        value {
          list {
            shape {
              unknown_rank: true
            }
          }
        }
      }
      attr {
        key: "keep_dims"
        value {
          b: false
        }
      }
    }
    node {
      name: "gradients/network/add_3_grad/Reshape"
      op: "Reshape"
      input: "gradients/network/add_3_grad/Sum"
      input: "gradients/network/add_3_grad/Shape"
      attr {
        key: "T"
        value {
          type: DT_FLOAT
        }
      }
      attr {
        key: "Tshape"
        value {
          type: DT_INT32
        }
      }
      attr {
        key: "_output_shapes"
        value {
          list {
            shape {
              dim {
                size: -1
              }
              dim {
                size: 3
              }
            }
          }
        }
      }
    }
    node {
      name: "gradients/network/add_3_grad/Sum_1"
      op: "Sum"
      input: "gradients/network/Softmax_grad/mul_1"
      input: "gradients/network/add_3_grad/BroadcastGradientArgs:1"
      attr {
        key: "T"
        value {
          type: DT_FLOAT
        }
      }
      attr {
        key: "Tidx"
        value {
          type: DT_INT32
        }
      }
      attr {
        key: "_output_shapes"
        value {
          list {
            shape {
              unknown_rank: true
            }
          }
        }
      }
      attr {
        key: "keep_dims"
        value {
          b: false
        }
      }
    }
    node {
      name: "gradients/network/add_3_grad/Reshape_1"
      op: "Reshape"
      input: "gradients/network/add_3_grad/Sum_1"
      input: "gradients/network/add_3_grad/Shape_1"
      attr {
        key: "T"
        value {
          type: DT_FLOAT
        }
      }
      attr {
        key: "Tshape"
        value {
          type: DT_INT32
        }
      }
      attr {
        key: "_output_shapes"
        value {
          list {
            shape {
              dim {
                size: 3
              }
            }
          }
        }
      }
    }
    node {
      name: "gradients/network/add_3_grad/tuple/group_deps"
      op: "NoOp"
      input: "^gradients/network/add_3_grad/Reshape"
      input: "^gradients/network/add_3_grad/Reshape_1"
    }
    node {
      name: "gradients/network/add_3_grad/tuple/control_dependency"
      op: "Identity"
      input: "gradients/network/add_3_grad/Reshape"
      input: "^gradients/network/add_3_grad/tuple/group_deps"
      attr {
        key: "T"
        value {
          type: DT_FLOAT
        }
      }
      attr {
        key: "_class"
        value {
          list {
            s: "loc:@gradients/network/add_3_grad/Reshape"
          }
        }
      }
      attr {
        key: "_output_shapes"
        value {
          list {
            shape {
              dim {
                size: -1
              }
              dim {
                size: 3
              }
            }
          }
        }
      }
    }
    node {
      name: "gradients/network/add_3_grad/tuple/control_dependency_1"
      op: "Identity"
      input: "gradients/network/add_3_grad/Reshape_1"
      input: "^gradients/network/add_3_grad/tuple/group_deps"
      attr {
        key: "T"
        value {
          type: DT_FLOAT
        }
      }
      attr {
        key: "_class"
        value {
          list {
            s: "loc:@gradients/network/add_3_grad/Reshape_1"
          }
        }
      }
      attr {
        key: "_output_shapes"
        value {
          list {
            shape {
              dim {
                size: 3
              }
            }
          }
        }
      }
    }
    node {
      name: "gradients/network/MatMul_3_grad/MatMul"
      op: "MatMul"
      input: "gradients/network/add_3_grad/tuple/control_dependency"
      input: "network/MatMul_3/ReadVariableOp"
      attr {
        key: "T"
        value {
          type: DT_FLOAT
        }
      }
      attr {
        key: "_output_shapes"
        value {
          list {
            shape {
              dim {
                size: -1
              }
              dim {
                size: 100
              }
            }
          }
        }
      }
      attr {
        key: "transpose_a"
        value {
          b: false
        }
      }
      attr {
        key: "transpose_b"
        value {
          b: true
        }
      }
    }
    node {
      name: "gradients/network/MatMul_3_grad/MatMul_1"
      op: "MatMul"
      input: "network/Relu_2"
      input: "gradients/network/add_3_grad/tuple/control_dependency"
      attr {
        key: "T"
        value {
          type: DT_FLOAT
        }
      }
      attr {
        key: "_output_shapes"
        value {
          list {
            shape {
              dim {
                size: 100
              }
              dim {
                size: 3
              }
            }
          }
        }
      }
      attr {
        key: "transpose_a"
        value {
          b: true
        }
      }
      attr {
        key: "transpose_b"
        value {
          b: false
        }
      }
    }
    node {
      name: "gradients/network/MatMul_3_grad/tuple/group_deps"
      op: "NoOp"
      input: "^gradients/network/MatMul_3_grad/MatMul"
      input: "^gradients/network/MatMul_3_grad/MatMul_1"
    }
    node {
      name: "gradients/network/MatMul_3_grad/tuple/control_dependency"
      op: "Identity"
      input: "gradients/network/MatMul_3_grad/MatMul"
      input: "^gradients/network/MatMul_3_grad/tuple/group_deps"
      attr {
        key: "T"
        value {
          type: DT_FLOAT
        }
      }
      attr {
        key: "_class"
        value {
          list {
            s: "loc:@gradients/network/MatMul_3_grad/MatMul"
          }
        }
      }
      attr {
        key: "_output_shapes"
        value {
          list {
            shape {
              dim {
                size: -1
              }
              dim {
                size: 100
              }
            }
          }
        }
      }
    }
    node {
      name: "gradients/network/MatMul_3_grad/tuple/control_dependency_1"
      op: "Identity"
      input: "gradients/network/MatMul_3_grad/MatMul_1"
      input: "^gradients/network/MatMul_3_grad/tuple/group_deps"
      attr {
        key: "T"
        value {
          type: DT_FLOAT
        }
      }
      attr {
        key: "_class"
        value {
          list {
            s: "loc:@gradients/network/MatMul_3_grad/MatMul_1"
          }
        }
      }
      attr {
        key: "_output_shapes"
        value {
          list {
            shape {
              dim {
                size: 100
              }
              dim {
                size: 3
              }
            }
          }
        }
      }
    }
    node {
      name: "gradients/network/Relu_2_grad/ReluGrad"
      op: "ReluGrad"
      input: "gradients/network/MatMul_3_grad/tuple/control_dependency"
      input: "network/Relu_2"
      attr {
        key: "T"
        value {
          type: DT_FLOAT
        }
      }
      attr {
        key: "_output_shapes"
        value {
          list {
            shape {
              dim {
                size: -1
              }
              dim {
                size: 100
              }
            }
          }
        }
      }
    }
    node {
      name: "gradients/network/add_2_grad/Shape"
      op: "Shape"
      input: "network/MatMul_2"
      attr {
        key: "T"
        value {
          type: DT_FLOAT
        }
      }
      attr {
        key: "_output_shapes"
        value {
          list {
            shape {
              dim {
                size: 2
              }
            }
          }
        }
      }
      attr {
        key: "out_type"
        value {
          type: DT_INT32
        }
      }
    }
    node {
      name: "gradients/network/add_2_grad/Shape_1"
      op: "Shape"
      input: "network/add_2/ReadVariableOp"
      attr {
        key: "T"
        value {
          type: DT_FLOAT
        }
      }
      attr {
        key: "_output_shapes"
        value {
          list {
            shape {
              dim {
                size: 1
              }
            }
          }
        }
      }
      attr {
        key: "out_type"
        value {
          type: DT_INT32
        }
      }
    }
    node {
      name: "gradients/network/add_2_grad/BroadcastGradientArgs"
      op: "BroadcastGradientArgs"
      input: "gradients/network/add_2_grad/Shape"
      input: "gradients/network/add_2_grad/Shape_1"
      attr {
        key: "T"
        value {
          type: DT_INT32
        }
      }
      attr {
        key: "_output_shapes"
        value {
          list {
            shape {
              dim {
                size: -1
              }
            }
            shape {
              dim {
                size: -1
              }
            }
          }
        }
      }
    }
    node {
      name: "gradients/network/add_2_grad/Sum"
      op: "Sum"
      input: "gradients/network/Relu_2_grad/ReluGrad"
      input: "gradients/network/add_2_grad/BroadcastGradientArgs"
      attr {
        key: "T"
        value {
          type: DT_FLOAT
        }
      }
      attr {
        key: "Tidx"
        value {
          type: DT_INT32
        }
      }
      attr {
        key: "_output_shapes"
        value {
          list {
            shape {
              unknown_rank: true
            }
          }
        }
      }
      attr {
        key: "keep_dims"
        value {
          b: false
        }
      }
    }
    node {
      name: "gradients/network/add_2_grad/Reshape"
      op: "Reshape"
      input: "gradients/network/add_2_grad/Sum"
      input: "gradients/network/add_2_grad/Shape"
      attr {
        key: "T"
        value {
          type: DT_FLOAT
        }
      }
      attr {
        key: "Tshape"
        value {
          type: DT_INT32
        }
      }
      attr {
        key: "_output_shapes"
        value {
          list {
            shape {
              dim {
                size: -1
              }
              dim {
                size: 100
              }
            }
          }
        }
      }
    }
    node {
      name: "gradients/network/add_2_grad/Sum_1"
      op: "Sum"
      input: "gradients/network/Relu_2_grad/ReluGrad"
      input: "gradients/network/add_2_grad/BroadcastGradientArgs:1"
      attr {
        key: "T"
        value {
          type: DT_FLOAT
        }
      }
      attr {
        key: "Tidx"
        value {
          type: DT_INT32
        }
      }
      attr {
        key: "_output_shapes"
        value {
          list {
            shape {
              unknown_rank: true
            }
          }
        }
      }
      attr {
        key: "keep_dims"
        value {
          b: false
        }
      }
    }
    node {
      name: "gradients/network/add_2_grad/Reshape_1"
      op: "Reshape"
      input: "gradients/network/add_2_grad/Sum_1"
      input: "gradients/network/add_2_grad/Shape_1"
      attr {
        key: "T"
        value {
          type: DT_FLOAT
        }
      }
      attr {
        key: "Tshape"
        value {
          type: DT_INT32
        }
      }
      attr {
        key: "_output_shapes"
        value {
          list {
            shape {
              dim {
                size: 100
              }
            }
          }
        }
      }
    }
    node {
      name: "gradients/network/add_2_grad/tuple/group_deps"
      op: "NoOp"
      input: "^gradients/network/add_2_grad/Reshape"
      input: "^gradients/network/add_2_grad/Reshape_1"
    }
    node {
      name: "gradients/network/add_2_grad/tuple/control_dependency"
      op: "Identity"
      input: "gradients/network/add_2_grad/Reshape"
      input: "^gradients/network/add_2_grad/tuple/group_deps"
      attr {
        key: "T"
        value {
          type: DT_FLOAT
        }
      }
      attr {
        key: "_class"
        value {
          list {
            s: "loc:@gradients/network/add_2_grad/Reshape"
          }
        }
      }
      attr {
        key: "_output_shapes"
        value {
          list {
            shape {
              dim {
                size: -1
              }
              dim {
                size: 100
              }
            }
          }
        }
      }
    }
    node {
      name: "gradients/network/add_2_grad/tuple/control_dependency_1"
      op: "Identity"
      input: "gradients/network/add_2_grad/Reshape_1"
      input: "^gradients/network/add_2_grad/tuple/group_deps"
      attr {
        key: "T"
        value {
          type: DT_FLOAT
        }
      }
      attr {
        key: "_class"
        value {
          list {
            s: "loc:@gradients/network/add_2_grad/Reshape_1"
          }
        }
      }
      attr {
        key: "_output_shapes"
        value {
          list {
            shape {
              dim {
                size: 100
              }
            }
          }
        }
      }
    }
    node {
      name: "gradients/network/MatMul_2_grad/MatMul"
      op: "MatMul"
      input: "gradients/network/add_2_grad/tuple/control_dependency"
      input: "network/MatMul_2/ReadVariableOp"
      attr {
        key: "T"
        value {
          type: DT_FLOAT
        }
      }
      attr {
        key: "_output_shapes"
        value {
          list {
            shape {
              dim {
                size: -1
              }
              dim {
                size: 100
              }
            }
          }
        }
      }
      attr {
        key: "transpose_a"
        value {
          b: false
        }
      }
      attr {
        key: "transpose_b"
        value {
          b: true
        }
      }
    }
    node {
      name: "gradients/network/MatMul_2_grad/MatMul_1"
      op: "MatMul"
      input: "network/Relu_1"
      input: "gradients/network/add_2_grad/tuple/control_dependency"
      attr {
        key: "T"
        value {
          type: DT_FLOAT
        }
      }
      attr {
        key: "_output_shapes"
        value {
          list {
            shape {
              dim {
                size: 100
              }
              dim {
                size: 100
              }
            }
          }
        }
      }
      attr {
        key: "transpose_a"
        value {
          b: true
        }
      }
      attr {
        key: "transpose_b"
        value {
          b: false
        }
      }
    }
    node {
      name: "gradients/network/MatMul_2_grad/tuple/group_deps"
      op: "NoOp"
      input: "^gradients/network/MatMul_2_grad/MatMul"
      input: "^gradients/network/MatMul_2_grad/MatMul_1"
    }
    node {
      name: "gradients/network/MatMul_2_grad/tuple/control_dependency"
      op: "Identity"
      input: "gradients/network/MatMul_2_grad/MatMul"
      input: "^gradients/network/MatMul_2_grad/tuple/group_deps"
      attr {
        key: "T"
        value {
          type: DT_FLOAT
        }
      }
      attr {
        key: "_class"
        value {
          list {
            s: "loc:@gradients/network/MatMul_2_grad/MatMul"
          }
        }
      }
      attr {
        key: "_output_shapes"
        value {
          list {
            shape {
              dim {
                size: -1
              }
              dim {
                size: 100
              }
            }
          }
        }
      }
    }
    node {
      name: "gradients/network/MatMul_2_grad/tuple/control_dependency_1"
      op: "Identity"
      input: "gradients/network/MatMul_2_grad/MatMul_1"
      input: "^gradients/network/MatMul_2_grad/tuple/group_deps"
      attr {
        key: "T"
        value {
          type: DT_FLOAT
        }
      }
      attr {
        key: "_class"
        value {
          list {
            s: "loc:@gradients/network/MatMul_2_grad/MatMul_1"
          }
        }
      }
      attr {
        key: "_output_shapes"
        value {
          list {
            shape {
              dim {
                size: 100
              }
              dim {
                size: 100
              }
            }
          }
        }
      }
    }
    node {
      name: "gradients/network/Relu_1_grad/ReluGrad"
      op: "ReluGrad"
      input: "gradients/network/MatMul_2_grad/tuple/control_dependency"
      input: "network/Relu_1"
      attr {
        key: "T"
        value {
          type: DT_FLOAT
        }
      }
      attr {
        key: "_output_shapes"
        value {
          list {
            shape {
              dim {
                size: -1
              }
              dim {
                size: 100
              }
            }
          }
        }
      }
    }
    node {
      name: "gradients/network/add_1_grad/Shape"
      op: "Shape"
      input: "network/MatMul_1"
      attr {
        key: "T"
        value {
          type: DT_FLOAT
        }
      }
      attr {
        key: "_output_shapes"
        value {
          list {
            shape {
              dim {
                size: 2
              }
            }
          }
        }
      }
      attr {
        key: "out_type"
        value {
          type: DT_INT32
        }
      }
    }
    node {
      name: "gradients/network/add_1_grad/Shape_1"
      op: "Shape"
      input: "network/add_1/ReadVariableOp"
      attr {
        key: "T"
        value {
          type: DT_FLOAT
        }
      }
      attr {
        key: "_output_shapes"
        value {
          list {
            shape {
              dim {
                size: 1
              }
            }
          }
        }
      }
      attr {
        key: "out_type"
        value {
          type: DT_INT32
        }
      }
    }
    node {
      name: "gradients/network/add_1_grad/BroadcastGradientArgs"
      op: "BroadcastGradientArgs"
      input: "gradients/network/add_1_grad/Shape"
      input: "gradients/network/add_1_grad/Shape_1"
      attr {
        key: "T"
        value {
          type: DT_INT32
        }
      }
      attr {
        key: "_output_shapes"
        value {
          list {
            shape {
              dim {
                size: -1
              }
            }
            shape {
              dim {
                size: -1
              }
            }
          }
        }
      }
    }
    node {
      name: "gradients/network/add_1_grad/Sum"
      op: "Sum"
      input: "gradients/network/Relu_1_grad/ReluGrad"
      input: "gradients/network/add_1_grad/BroadcastGradientArgs"
      attr {
        key: "T"
        value {
          type: DT_FLOAT
        }
      }
      attr {
        key: "Tidx"
        value {
          type: DT_INT32
        }
      }
      attr {
        key: "_output_shapes"
        value {
          list {
            shape {
              unknown_rank: true
            }
          }
        }
      }
      attr {
        key: "keep_dims"
        value {
          b: false
        }
      }
    }
    node {
      name: "gradients/network/add_1_grad/Reshape"
      op: "Reshape"
      input: "gradients/network/add_1_grad/Sum"
      input: "gradients/network/add_1_grad/Shape"
      attr {
        key: "T"
        value {
          type: DT_FLOAT
        }
      }
      attr {
        key: "Tshape"
        value {
          type: DT_INT32
        }
      }
      attr {
        key: "_output_shapes"
        value {
          list {
            shape {
              dim {
                size: -1
              }
              dim {
                size: 100
              }
            }
          }
        }
      }
    }
    node {
      name: "gradients/network/add_1_grad/Sum_1"
      op: "Sum"
      input: "gradients/network/Relu_1_grad/ReluGrad"
      input: "gradients/network/add_1_grad/BroadcastGradientArgs:1"
      attr {
        key: "T"
        value {
          type: DT_FLOAT
        }
      }
      attr {
        key: "Tidx"
        value {
          type: DT_INT32
        }
      }
      attr {
        key: "_output_shapes"
        value {
          list {
            shape {
              unknown_rank: true
            }
          }
        }
      }
      attr {
        key: "keep_dims"
        value {
          b: false
        }
      }
    }
    node {
      name: "gradients/network/add_1_grad/Reshape_1"
      op: "Reshape"
      input: "gradients/network/add_1_grad/Sum_1"
      input: "gradients/network/add_1_grad/Shape_1"
      attr {
        key: "T"
        value {
          type: DT_FLOAT
        }
      }
      attr {
        key: "Tshape"
        value {
          type: DT_INT32
        }
      }
      attr {
        key: "_output_shapes"
        value {
          list {
            shape {
              dim {
                size: 100
              }
            }
          }
        }
      }
    }
    node {
      name: "gradients/network/add_1_grad/tuple/group_deps"
      op: "NoOp"
      input: "^gradients/network/add_1_grad/Reshape"
      input: "^gradients/network/add_1_grad/Reshape_1"
    }
    node {
      name: "gradients/network/add_1_grad/tuple/control_dependency"
      op: "Identity"
      input: "gradients/network/add_1_grad/Reshape"
      input: "^gradients/network/add_1_grad/tuple/group_deps"
      attr {
        key: "T"
        value {
          type: DT_FLOAT
        }
      }
      attr {
        key: "_class"
        value {
          list {
            s: "loc:@gradients/network/add_1_grad/Reshape"
          }
        }
      }
      attr {
        key: "_output_shapes"
        value {
          list {
            shape {
              dim {
                size: -1
              }
              dim {
                size: 100
              }
            }
          }
        }
      }
    }
    node {
      name: "gradients/network/add_1_grad/tuple/control_dependency_1"
      op: "Identity"
      input: "gradients/network/add_1_grad/Reshape_1"
      input: "^gradients/network/add_1_grad/tuple/group_deps"
      attr {
        key: "T"
        value {
          type: DT_FLOAT
        }
      }
      attr {
        key: "_class"
        value {
          list {
            s: "loc:@gradients/network/add_1_grad/Reshape_1"
          }
        }
      }
      attr {
        key: "_output_shapes"
        value {
          list {
            shape {
              dim {
                size: 100
              }
            }
          }
        }
      }
    }
    node {
      name: "gradients/network/MatMul_1_grad/MatMul"
      op: "MatMul"
      input: "gradients/network/add_1_grad/tuple/control_dependency"
      input: "network/MatMul_1/ReadVariableOp"
      attr {
        key: "T"
        value {
          type: DT_FLOAT
        }
      }
      attr {
        key: "_output_shapes"
        value {
          list {
            shape {
              dim {
                size: -1
              }
              dim {
                size: 100
              }
            }
          }
        }
      }
      attr {
        key: "transpose_a"
        value {
          b: false
        }
      }
      attr {
        key: "transpose_b"
        value {
          b: true
        }
      }
    }
    node {
      name: "gradients/network/MatMul_1_grad/MatMul_1"
      op: "MatMul"
      input: "network/Relu"
      input: "gradients/network/add_1_grad/tuple/control_dependency"
      attr {
        key: "T"
        value {
          type: DT_FLOAT
        }
      }
      attr {
        key: "_output_shapes"
        value {
          list {
            shape {
              dim {
                size: 100
              }
              dim {
                size: 100
              }
            }
          }
        }
      }
      attr {
        key: "transpose_a"
        value {
          b: true
        }
      }
      attr {
        key: "transpose_b"
        value {
          b: false
        }
      }
    }
    node {
      name: "gradients/network/MatMul_1_grad/tuple/group_deps"
      op: "NoOp"
      input: "^gradients/network/MatMul_1_grad/MatMul"
      input: "^gradients/network/MatMul_1_grad/MatMul_1"
    }
    node {
      name: "gradients/network/MatMul_1_grad/tuple/control_dependency"
      op: "Identity"
      input: "gradients/network/MatMul_1_grad/MatMul"
      input: "^gradients/network/MatMul_1_grad/tuple/group_deps"
      attr {
        key: "T"
        value {
          type: DT_FLOAT
        }
      }
      attr {
        key: "_class"
        value {
          list {
            s: "loc:@gradients/network/MatMul_1_grad/MatMul"
          }
        }
      }
      attr {
        key: "_output_shapes"
        value {
          list {
            shape {
              dim {
                size: -1
              }
              dim {
                size: 100
              }
            }
          }
        }
      }
    }
    node {
      name: "gradients/network/MatMul_1_grad/tuple/control_dependency_1"
      op: "Identity"
      input: "gradients/network/MatMul_1_grad/MatMul_1"
      input: "^gradients/network/MatMul_1_grad/tuple/group_deps"
      attr {
        key: "T"
        value {
          type: DT_FLOAT
        }
      }
      attr {
        key: "_class"
        value {
          list {
            s: "loc:@gradients/network/MatMul_1_grad/MatMul_1"
          }
        }
      }
      attr {
        key: "_output_shapes"
        value {
          list {
            shape {
              dim {
                size: 100
              }
              dim {
                size: 100
              }
            }
          }
        }
      }
    }
    node {
      name: "gradients/network/Relu_grad/ReluGrad"
      op: "ReluGrad"
      input: "gradients/network/MatMul_1_grad/tuple/control_dependency"
      input: "network/Relu"
      attr {
        key: "T"
        value {
          type: DT_FLOAT
        }
      }
      attr {
        key: "_output_shapes"
        value {
          list {
            shape {
              dim {
                size: -1
              }
              dim {
                size: 100
              }
            }
          }
        }
      }
    }
    node {
      name: "gradients/network/add_grad/Shape"
      op: "Shape"
      input: "network/MatMul"
      attr {
        key: "T"
        value {
          type: DT_FLOAT
        }
      }
      attr {
        key: "_output_shapes"
        value {
          list {
            shape {
              dim {
                size: 2
              }
            }
          }
        }
      }
      attr {
        key: "out_type"
        value {
          type: DT_INT32
        }
      }
    }
    node {
      name: "gradients/network/add_grad/Shape_1"
      op: "Shape"
      input: "network/add/ReadVariableOp"
      attr {
        key: "T"
        value {
          type: DT_FLOAT
        }
      }
      attr {
        key: "_output_shapes"
        value {
          list {
            shape {
              dim {
                size: 1
              }
            }
          }
        }
      }
      attr {
        key: "out_type"
        value {
          type: DT_INT32
        }
      }
    }
    node {
      name: "gradients/network/add_grad/BroadcastGradientArgs"
      op: "BroadcastGradientArgs"
      input: "gradients/network/add_grad/Shape"
      input: "gradients/network/add_grad/Shape_1"
      attr {
        key: "T"
        value {
          type: DT_INT32
        }
      }
      attr {
        key: "_output_shapes"
        value {
          list {
            shape {
              dim {
                size: -1
              }
            }
            shape {
              dim {
                size: -1
              }
            }
          }
        }
      }
    }
    node {
      name: "gradients/network/add_grad/Sum"
      op: "Sum"
      input: "gradients/network/Relu_grad/ReluGrad"
      input: "gradients/network/add_grad/BroadcastGradientArgs"
      attr {
        key: "T"
        value {
          type: DT_FLOAT
        }
      }
      attr {
        key: "Tidx"
        value {
          type: DT_INT32
        }
      }
      attr {
        key: "_output_shapes"
        value {
          list {
            shape {
              unknown_rank: true
            }
          }
        }
      }
      attr {
        key: "keep_dims"
        value {
          b: false
        }
      }
    }
    node {
      name: "gradients/network/add_grad/Reshape"
      op: "Reshape"
      input: "gradients/network/add_grad/Sum"
      input: "gradients/network/add_grad/Shape"
      attr {
        key: "T"
        value {
          type: DT_FLOAT
        }
      }
      attr {
        key: "Tshape"
        value {
          type: DT_INT32
        }
      }
      attr {
        key: "_output_shapes"
        value {
          list {
            shape {
              dim {
                size: -1
              }
              dim {
                size: 100
              }
            }
          }
        }
      }
    }
    node {
      name: "gradients/network/add_grad/Sum_1"
      op: "Sum"
      input: "gradients/network/Relu_grad/ReluGrad"
      input: "gradients/network/add_grad/BroadcastGradientArgs:1"
      attr {
        key: "T"
        value {
          type: DT_FLOAT
        }
      }
      attr {
        key: "Tidx"
        value {
          type: DT_INT32
        }
      }
      attr {
        key: "_output_shapes"
        value {
          list {
            shape {
              unknown_rank: true
            }
          }
        }
      }
      attr {
        key: "keep_dims"
        value {
          b: false
        }
      }
    }
    node {
      name: "gradients/network/add_grad/Reshape_1"
      op: "Reshape"
      input: "gradients/network/add_grad/Sum_1"
      input: "gradients/network/add_grad/Shape_1"
      attr {
        key: "T"
        value {
          type: DT_FLOAT
        }
      }
      attr {
        key: "Tshape"
        value {
          type: DT_INT32
        }
      }
      attr {
        key: "_output_shapes"
        value {
          list {
            shape {
              dim {
                size: 100
              }
            }
          }
        }
      }
    }
    node {
      name: "gradients/network/add_grad/tuple/group_deps"
      op: "NoOp"
      input: "^gradients/network/add_grad/Reshape"
      input: "^gradients/network/add_grad/Reshape_1"
    }
    node {
      name: "gradients/network/add_grad/tuple/control_dependency"
      op: "Identity"
      input: "gradients/network/add_grad/Reshape"
      input: "^gradients/network/add_grad/tuple/group_deps"
      attr {
        key: "T"
        value {
          type: DT_FLOAT
        }
      }
      attr {
        key: "_class"
        value {
          list {
            s: "loc:@gradients/network/add_grad/Reshape"
          }
        }
      }
      attr {
        key: "_output_shapes"
        value {
          list {
            shape {
              dim {
                size: -1
              }
              dim {
                size: 100
              }
            }
          }
        }
      }
    }
    node {
      name: "gradients/network/add_grad/tuple/control_dependency_1"
      op: "Identity"
      input: "gradients/network/add_grad/Reshape_1"
      input: "^gradients/network/add_grad/tuple/group_deps"
      attr {
        key: "T"
        value {
          type: DT_FLOAT
        }
      }
      attr {
        key: "_class"
        value {
          list {
            s: "loc:@gradients/network/add_grad/Reshape_1"
          }
        }
      }
      attr {
        key: "_output_shapes"
        value {
          list {
            shape {
              dim {
                size: 100
              }
            }
          }
        }
      }
    }
    node {
      name: "gradients/network/MatMul_grad/MatMul"
      op: "MatMul"
      input: "gradients/network/add_grad/tuple/control_dependency"
      input: "network/MatMul/ReadVariableOp"
      attr {
        key: "T"
        value {
          type: DT_FLOAT
        }
      }
      attr {
        key: "_output_shapes"
        value {
          list {
            shape {
              dim {
                size: -1
              }
              dim {
                size: 9
              }
            }
          }
        }
      }
      attr {
        key: "transpose_a"
        value {
          b: false
        }
      }
      attr {
        key: "transpose_b"
        value {
          b: true
        }
      }
    }
    node {
      name: "gradients/network/MatMul_grad/MatMul_1"
      op: "MatMul"
      input: "network/Placeholder"
      input: "gradients/network/add_grad/tuple/control_dependency"
      attr {
        key: "T"
        value {
          type: DT_FLOAT
        }
      }
      attr {
        key: "_output_shapes"
        value {
          list {
            shape {
              dim {
                size: 9
              }
              dim {
                size: 100
              }
            }
          }
        }
      }
      attr {
        key: "transpose_a"
        value {
          b: true
        }
      }
      attr {
        key: "transpose_b"
        value {
          b: false
        }
      }
    }
    node {
      name: "gradients/network/MatMul_grad/tuple/group_deps"
      op: "NoOp"
      input: "^gradients/network/MatMul_grad/MatMul"
      input: "^gradients/network/MatMul_grad/MatMul_1"
    }
    node {
      name: "gradients/network/MatMul_grad/tuple/control_dependency"
      op: "Identity"
      input: "gradients/network/MatMul_grad/MatMul"
      input: "^gradients/network/MatMul_grad/tuple/group_deps"
      attr {
        key: "T"
        value {
          type: DT_FLOAT
        }
      }
      attr {
        key: "_class"
        value {
          list {
            s: "loc:@gradients/network/MatMul_grad/MatMul"
          }
        }
      }
      attr {
        key: "_output_shapes"
        value {
          list {
            shape {
              dim {
                size: -1
              }
              dim {
                size: 9
              }
            }
          }
        }
      }
    }
    node {
      name: "gradients/network/MatMul_grad/tuple/control_dependency_1"
      op: "Identity"
      input: "gradients/network/MatMul_grad/MatMul_1"
      input: "^gradients/network/MatMul_grad/tuple/group_deps"
      attr {
        key: "T"
        value {
          type: DT_FLOAT
        }
      }
      attr {
        key: "_class"
        value {
          list {
            s: "loc:@gradients/network/MatMul_grad/MatMul_1"
          }
        }
      }
      attr {
        key: "_output_shapes"
        value {
          list {
            shape {
              dim {
                size: 9
              }
              dim {
                size: 100
              }
            }
          }
        }
      }
    }
    node {
      name: "beta1_power/Initializer/initial_value"
      op: "Const"
      attr {
        key: "_class"
        value {
          list {
            s: "loc:@network/biases"
          }
        }
      }
      attr {
        key: "_output_shapes"
        value {
          list {
            shape {
            }
          }
        }
      }
      attr {
        key: "dtype"
        value {
          type: DT_FLOAT
        }
      }
      attr {
        key: "value"
        value {
          tensor {
            dtype: DT_FLOAT
            tensor_shape {
            }
            float_val: 0.8999999761581421
          }
        }
      }
    }
    node {
      name: "beta1_power"
      op: "VarHandleOp"
      attr {
        key: "_class"
        value {
          list {
            s: "loc:@network/biases"
          }
        }
      }
      attr {
        key: "_output_shapes"
        value {
          list {
            shape {
            }
          }
        }
      }
      attr {
        key: "container"
        value {
          s: ""
        }
      }
      attr {
        key: "dtype"
        value {
          type: DT_FLOAT
        }
      }
      attr {
        key: "shape"
        value {
          shape {
          }
        }
      }
      attr {
        key: "shared_name"
        value {
          s: "beta1_power"
        }
      }
    }
    node {
      name: "beta1_power/IsInitialized/VarIsInitializedOp"
      op: "VarIsInitializedOp"
      input: "beta1_power"
      attr {
        key: "_class"
        value {
          list {
            s: "loc:@network/biases"
          }
        }
      }
      attr {
        key: "_output_shapes"
        value {
          list {
            shape {
            }
          }
        }
      }
    }
    node {
      name: "beta1_power/Assign"
      op: "AssignVariableOp"
      input: "beta1_power"
      input: "beta1_power/Initializer/initial_value"
      attr {
        key: "dtype"
        value {
          type: DT_FLOAT
        }
      }
    }
    node {
      name: "beta1_power/Read/ReadVariableOp"
      op: "ReadVariableOp"
      input: "beta1_power"
      attr {
        key: "_class"
        value {
          list {
            s: "loc:@network/biases"
          }
        }
      }
      attr {
        key: "_output_shapes"
        value {
          list {
            shape {
            }
          }
        }
      }
      attr {
        key: "dtype"
        value {
          type: DT_FLOAT
        }
      }
    }
    node {
      name: "beta2_power/Initializer/initial_value"
      op: "Const"
      attr {
        key: "_class"
        value {
          list {
            s: "loc:@network/biases"
          }
        }
      }
      attr {
        key: "_output_shapes"
        value {
          list {
            shape {
            }
          }
        }
      }
      attr {
        key: "dtype"
        value {
          type: DT_FLOAT
        }
      }
      attr {
        key: "value"
        value {
          tensor {
            dtype: DT_FLOAT
            tensor_shape {
            }
            float_val: 0.9990000128746033
          }
        }
      }
    }
    node {
      name: "beta2_power"
      op: "VarHandleOp"
      attr {
        key: "_class"
        value {
          list {
            s: "loc:@network/biases"
          }
        }
      }
      attr {
        key: "_output_shapes"
        value {
          list {
            shape {
            }
          }
        }
      }
      attr {
        key: "container"
        value {
          s: ""
        }
      }
      attr {
        key: "dtype"
        value {
          type: DT_FLOAT
        }
      }
      attr {
        key: "shape"
        value {
          shape {
          }
        }
      }
      attr {
        key: "shared_name"
        value {
          s: "beta2_power"
        }
      }
    }
    node {
      name: "beta2_power/IsInitialized/VarIsInitializedOp"
      op: "VarIsInitializedOp"
      input: "beta2_power"
      attr {
        key: "_class"
        value {
          list {
            s: "loc:@network/biases"
          }
        }
      }
      attr {
        key: "_output_shapes"
        value {
          list {
            shape {
            }
          }
        }
      }
    }
    node {
      name: "beta2_power/Assign"
      op: "AssignVariableOp"
      input: "beta2_power"
      input: "beta2_power/Initializer/initial_value"
      attr {
        key: "dtype"
        value {
          type: DT_FLOAT
        }
      }
    }
    node {
      name: "beta2_power/Read/ReadVariableOp"
      op: "ReadVariableOp"
      input: "beta2_power"
      attr {
        key: "_class"
        value {
          list {
            s: "loc:@network/biases"
          }
        }
      }
      attr {
        key: "_output_shapes"
        value {
          list {
            shape {
            }
          }
        }
      }
      attr {
        key: "dtype"
        value {
          type: DT_FLOAT
        }
      }
    }
    node {
      name: "network/weights/Adam/Initializer/zeros"
      op: "Const"
      attr {
        key: "_class"
        value {
          list {
            s: "loc:@network/weights"
          }
        }
      }
      attr {
        key: "_output_shapes"
        value {
          list {
            shape {
              dim {
                size: 9
              }
              dim {
                size: 100
              }
            }
          }
        }
      }
      attr {
        key: "dtype"
        value {
          type: DT_FLOAT
        }
      }
      attr {
        key: "value"
        value {
          tensor {
            dtype: DT_FLOAT
            tensor_shape {
              dim {
                size: 9
              }
              dim {
                size: 100
              }
            }
            float_val: 0.0
          }
        }
      }
    }
    node {
      name: "network/weights/Adam"
      op: "VarHandleOp"
      attr {
        key: "_class"
        value {
          list {
            s: "loc:@network/weights"
          }
        }
      }
      attr {
        key: "_output_shapes"
        value {
          list {
            shape {
            }
          }
        }
      }
      attr {
        key: "container"
        value {
          s: ""
        }
      }
      attr {
        key: "dtype"
        value {
          type: DT_FLOAT
        }
      }
      attr {
        key: "shape"
        value {
          shape {
            dim {
              size: 9
            }
            dim {
              size: 100
            }
          }
        }
      }
      attr {
        key: "shared_name"
        value {
          s: "network/weights/Adam"
        }
      }
    }
    node {
      name: "network/weights/Adam/IsInitialized/VarIsInitializedOp"
      op: "VarIsInitializedOp"
      input: "network/weights/Adam"
      attr {
        key: "_class"
        value {
          list {
            s: "loc:@network/weights"
          }
        }
      }
      attr {
        key: "_output_shapes"
        value {
          list {
            shape {
            }
          }
        }
      }
    }
    node {
      name: "network/weights/Adam/Assign"
      op: "AssignVariableOp"
      input: "network/weights/Adam"
      input: "network/weights/Adam/Initializer/zeros"
      attr {
        key: "dtype"
        value {
          type: DT_FLOAT
        }
      }
    }
    node {
      name: "network/weights/Adam/Read/ReadVariableOp"
      op: "ReadVariableOp"
      input: "network/weights/Adam"
      attr {
        key: "_class"
        value {
          list {
            s: "loc:@network/weights"
          }
        }
      }
      attr {
        key: "_output_shapes"
        value {
          list {
            shape {
              dim {
                size: 9
              }
              dim {
                size: 100
              }
            }
          }
        }
      }
      attr {
        key: "dtype"
        value {
          type: DT_FLOAT
        }
      }
    }
    node {
      name: "network/weights/Adam_1/Initializer/zeros"
      op: "Const"
      attr {
        key: "_class"
        value {
          list {
            s: "loc:@network/weights"
          }
        }
      }
      attr {
        key: "_output_shapes"
        value {
          list {
            shape {
              dim {
                size: 9
              }
              dim {
                size: 100
              }
            }
          }
        }
      }
      attr {
        key: "dtype"
        value {
          type: DT_FLOAT
        }
      }
      attr {
        key: "value"
        value {
          tensor {
            dtype: DT_FLOAT
            tensor_shape {
              dim {
                size: 9
              }
              dim {
                size: 100
              }
            }
            float_val: 0.0
          }
        }
      }
    }
    node {
      name: "network/weights/Adam_1"
      op: "VarHandleOp"
      attr {
        key: "_class"
        value {
          list {
            s: "loc:@network/weights"
          }
        }
      }
      attr {
        key: "_output_shapes"
        value {
          list {
            shape {
            }
          }
        }
      }
      attr {
        key: "container"
        value {
          s: ""
        }
      }
      attr {
        key: "dtype"
        value {
          type: DT_FLOAT
        }
      }
      attr {
        key: "shape"
        value {
          shape {
            dim {
              size: 9
            }
            dim {
              size: 100
            }
          }
        }
      }
      attr {
        key: "shared_name"
        value {
          s: "network/weights/Adam_1"
        }
      }
    }
    node {
      name: "network/weights/Adam_1/IsInitialized/VarIsInitializedOp"
      op: "VarIsInitializedOp"
      input: "network/weights/Adam_1"
      attr {
        key: "_class"
        value {
          list {
            s: "loc:@network/weights"
          }
        }
      }
      attr {
        key: "_output_shapes"
        value {
          list {
            shape {
            }
          }
        }
      }
    }
    node {
      name: "network/weights/Adam_1/Assign"
      op: "AssignVariableOp"
      input: "network/weights/Adam_1"
      input: "network/weights/Adam_1/Initializer/zeros"
      attr {
        key: "dtype"
        value {
          type: DT_FLOAT
        }
      }
    }
    node {
      name: "network/weights/Adam_1/Read/ReadVariableOp"
      op: "ReadVariableOp"
      input: "network/weights/Adam_1"
      attr {
        key: "_class"
        value {
          list {
            s: "loc:@network/weights"
          }
        }
      }
      attr {
        key: "_output_shapes"
        value {
          list {
            shape {
              dim {
                size: 9
              }
              dim {
                size: 100
              }
            }
          }
        }
      }
      attr {
        key: "dtype"
        value {
          type: DT_FLOAT
        }
      }
    }
    node {
      name: "network/biases/Adam/Initializer/zeros"
      op: "Const"
      attr {
        key: "_class"
        value {
          list {
            s: "loc:@network/biases"
          }
        }
      }
      attr {
        key: "_output_shapes"
        value {
          list {
            shape {
              dim {
                size: 100
              }
            }
          }
        }
      }
      attr {
        key: "dtype"
        value {
          type: DT_FLOAT
        }
      }
      attr {
        key: "value"
        value {
          tensor {
            dtype: DT_FLOAT
            tensor_shape {
              dim {
                size: 100
              }
            }
            float_val: 0.0
          }
        }
      }
    }
    node {
      name: "network/biases/Adam"
      op: "VarHandleOp"
      attr {
        key: "_class"
        value {
          list {
            s: "loc:@network/biases"
          }
        }
      }
      attr {
        key: "_output_shapes"
        value {
          list {
            shape {
            }
          }
        }
      }
      attr {
        key: "container"
        value {
          s: ""
        }
      }
      attr {
        key: "dtype"
        value {
          type: DT_FLOAT
        }
      }
      attr {
        key: "shape"
        value {
          shape {
            dim {
              size: 100
            }
          }
        }
      }
      attr {
        key: "shared_name"
        value {
          s: "network/biases/Adam"
        }
      }
    }
    node {
      name: "network/biases/Adam/IsInitialized/VarIsInitializedOp"
      op: "VarIsInitializedOp"
      input: "network/biases/Adam"
      attr {
        key: "_class"
        value {
          list {
            s: "loc:@network/biases"
          }
        }
      }
      attr {
        key: "_output_shapes"
        value {
          list {
            shape {
            }
          }
        }
      }
    }
    node {
      name: "network/biases/Adam/Assign"
      op: "AssignVariableOp"
      input: "network/biases/Adam"
      input: "network/biases/Adam/Initializer/zeros"
      attr {
        key: "dtype"
        value {
          type: DT_FLOAT
        }
      }
    }
    node {
      name: "network/biases/Adam/Read/ReadVariableOp"
      op: "ReadVariableOp"
      input: "network/biases/Adam"
      attr {
        key: "_class"
        value {
          list {
            s: "loc:@network/biases"
          }
        }
      }
      attr {
        key: "_output_shapes"
        value {
          list {
            shape {
              dim {
                size: 100
              }
            }
          }
        }
      }
      attr {
        key: "dtype"
        value {
          type: DT_FLOAT
        }
      }
    }
    node {
      name: "network/biases/Adam_1/Initializer/zeros"
      op: "Const"
      attr {
        key: "_class"
        value {
          list {
            s: "loc:@network/biases"
          }
        }
      }
      attr {
        key: "_output_shapes"
        value {
          list {
            shape {
              dim {
                size: 100
              }
            }
          }
        }
      }
      attr {
        key: "dtype"
        value {
          type: DT_FLOAT
        }
      }
      attr {
        key: "value"
        value {
          tensor {
            dtype: DT_FLOAT
            tensor_shape {
              dim {
                size: 100
              }
            }
            float_val: 0.0
          }
        }
      }
    }
    node {
      name: "network/biases/Adam_1"
      op: "VarHandleOp"
      attr {
        key: "_class"
        value {
          list {
            s: "loc:@network/biases"
          }
        }
      }
      attr {
        key: "_output_shapes"
        value {
          list {
            shape {
            }
          }
        }
      }
      attr {
        key: "container"
        value {
          s: ""
        }
      }
      attr {
        key: "dtype"
        value {
          type: DT_FLOAT
        }
      }
      attr {
        key: "shape"
        value {
          shape {
            dim {
              size: 100
            }
          }
        }
      }
      attr {
        key: "shared_name"
        value {
          s: "network/biases/Adam_1"
        }
      }
    }
    node {
      name: "network/biases/Adam_1/IsInitialized/VarIsInitializedOp"
      op: "VarIsInitializedOp"
      input: "network/biases/Adam_1"
      attr {
        key: "_class"
        value {
          list {
            s: "loc:@network/biases"
          }
        }
      }
      attr {
        key: "_output_shapes"
        value {
          list {
            shape {
            }
          }
        }
      }
    }
    node {
      name: "network/biases/Adam_1/Assign"
      op: "AssignVariableOp"
      input: "network/biases/Adam_1"
      input: "network/biases/Adam_1/Initializer/zeros"
      attr {
        key: "dtype"
        value {
          type: DT_FLOAT
        }
      }
    }
    node {
      name: "network/biases/Adam_1/Read/ReadVariableOp"
      op: "ReadVariableOp"
      input: "network/biases/Adam_1"
      attr {
        key: "_class"
        value {
          list {
            s: "loc:@network/biases"
          }
        }
      }
      attr {
        key: "_output_shapes"
        value {
          list {
            shape {
              dim {
                size: 100
              }
            }
          }
        }
      }
      attr {
        key: "dtype"
        value {
          type: DT_FLOAT
        }
      }
    }
    node {
      name: "network/weights_1/Adam/Initializer/zeros/shape_as_tensor"
      op: "Const"
      attr {
        key: "_class"
        value {
          list {
            s: "loc:@network/weights_1"
          }
        }
      }
      attr {
        key: "_output_shapes"
        value {
          list {
            shape {
              dim {
                size: 2
              }
            }
          }
        }
      }
      attr {
        key: "dtype"
        value {
          type: DT_INT32
        }
      }
      attr {
        key: "value"
        value {
          tensor {
            dtype: DT_INT32
            tensor_shape {
              dim {
                size: 2
              }
            }
            tensor_content: "d\000\000\000d\000\000\000"
          }
        }
      }
…
        key: "value"
        value {
          tensor {
            dtype: DT_FLOAT
            tensor_shape {
              dim {
                size: 100
              }
              dim {
                size: 100
              }
            }
            tensor_content: "…"
          }
        }
      }
    }
    node {
      name: "AssignVariableOp_2"
      op: "AssignVariableOp"
      input: "network/weights_1"
      input: "Const_2"
      attr {
        key: "dtype"
        value {
          type: DT_FLOAT
        }
      }
    }
    node {
      name: "ReadVariableOp_2"
      op: "ReadVariableOp"
      input: "network/weights_1"
      input: "^AssignVariableOp_2"
      attr {
        key: "_output_shapes"
        value {
          list {
            shape {
              dim {
                size: 100
              }
              dim {
                size: 100
              }
            }
          }
        }
      }
      attr {
        key: "dtype"
        value {
          type: DT_FLOAT
        }
      }
    }
    node {
      name: "Const_3"
      op: "Const"
      attr {
        key: "_output_shapes"
        value {
          list {
            shape {
              dim {
                size: 100
              }
            }
          }
        }
      }
      attr {
        key: "dtype"
        value {
          type: DT_FLOAT
        }
      }
      attr {
        key: "value"
        value {
          tensor {
            dtype: DT_FLOAT
            tensor_shape {
              dim {
                size: 100
              }
            }
            tensor_content: "…"
          }
        }
      }
    }
    node {
      name: "AssignVariableOp_3"
      op: "AssignVariableOp"
      input: "network/biases_1"
      input: "Const_3"
      attr {
        key: "dtype"
        value {
          type: DT_FLOAT
        }
      }
    }
    node {
      name: "ReadVariableOp_3"
      op: "ReadVariableOp"
      input: "network/biases_1"
      input: "^AssignVariableOp_3"
      attr {
        key: "_output_shapes"
        value {
          list {
            shape {
              dim {
                size: 100
              }
            }
          }
        }
      }
      attr {
        key: "dtype"
        value {
          type: DT_FLOAT
        }
      }
    }
    node {
      name: "Const_4"
      op: "Const"
      attr {
        key: "_output_shapes"
        value {
          list {
            shape {
              dim {
                size: 100
              }
              dim {
                size: 100
              }
            }
          }
        }
      }
      attr {
        key: "dtype"
        value {
          type: DT_FLOAT
        }
      }
      attr {
        key: "value"
        value {
          tensor {
            dtype: DT_FLOAT
            tensor_shape {
              dim {
                size: 100
              }
              dim {
                size: 100
              }
            }
            tensor_content: "…"
          }
        }
      }
    }
    node {
      name: "AssignVariableOp_4"
      op: "AssignVariableOp"
      input: "network/weights_2"
      input: "Const_4"
      attr {
        key: "dtype"
        value {
          type: DT_FLOAT
        }
      }
    }
    node {
      name: "ReadVariableOp_4"
      op: "ReadVariableOp"
      input: "network/weights_2"
      input: "^AssignVariableOp_4"
      attr {
        key: "_output_shapes"
        value {
          list {
            shape {
              dim {
                size: 100
              }
              dim {
                size: 100
              }
            }
          }
        }
      }
      attr {
        key: "dtype"
        value {
          type: DT_FLOAT
        }
      }
    }
    node {
      name: "Const_5"
      op: "Const"
      attr {
        key: "_output_shapes"
        value {
          list {
            shape {
              dim {
                size: 100
              }
            }
          }
        }
      }
      attr {
        key: "dtype"
        value {
          type: DT_FLOAT
        }
      }
      attr {
        key: "value"
        value {
          tensor {
            dtype: DT_FLOAT
            tensor_shape {
              dim {
                size: 100
              }
            }
            tensor_content: "…"
          }
        }
      }
    }
    node {
      name: "AssignVariableOp_5"
      op: "AssignVariableOp"
      input: "network/biases_2"
      input: "Const_5"
      attr {
        key: "dtype"
        value {
          type: DT_FLOAT
        }
      }
    }
    node {
      name: "ReadVariableOp_5"
      op: "ReadVariableOp"
      input: "network/biases_2"
      input: "^AssignVariableOp_5"
      attr {
        key: "_output_shapes"
        value {
          list {
            shape {
              dim {
                size: 100
              }
            }
          }
        }
      }
      attr {
        key: "dtype"
        value {
          type: DT_FLOAT
        }
      }
    }
    node {
      name: "Const_6"
      op: "Const"
      attr {
        key: "_output_shapes"
        value {
          list {
            shape {
              dim {
                size: 100
              }
              dim {
                size: 3
              }
            }
          }
        }
      }
      attr {
        key: "dtype"
        value {
          type: DT_FLOAT
        }
      }
      attr {
        key: "value"
        value {
          tensor {
            dtype: DT_FLOAT
            tensor_shape {
              dim {
                size: 100
              }
              dim {
                size: 3
              }
            }
            tensor_content: "…"
          }
        }
      }
    }
    node {
      name: "AssignVariableOp_6"
      op: "AssignVariableOp"
      input: "network/output_weights"
      input: "Const_6"
      attr {
        key: "dtype"
        value {
          type: DT_FLOAT
        }
      }
    }
    node {
      name: "ReadVariableOp_6"
      op: "ReadVariableOp"
      input: "network/output_weights"
      input: "^AssignVariableOp_6"
      attr {
        key: "_output_shapes"
        value {
          list {
            shape {
              dim {
                size: 100
              }
              dim {
                size: 3
              }
            }
          }
        }
      }
      attr {
        key: "dtype"
        value {
          type: DT_FLOAT
        }
      }
    }
    node {
      name: "Const_7"
      op: "Const"
      attr {
        key: "_output_shapes"
        value {
          list {
            shape {
              dim {
                size: 3
              }
            }
          }
        }
      }
      attr {
        key: "dtype"
        value {
          type: DT_FLOAT
        }
      }
      attr {
        key: "value"
        value {
          tensor {
            dtype: DT_FLOAT
            tensor_shape {
              dim {
                size: 3
              }
            }
            tensor_content: "\300\244\031\273\250\365\222<\301\320w<"
          }
        }
      }
    }
    node {
      name: "AssignVariableOp_7"
      op: "AssignVariableOp"
      input: "network/output_bias"
      input: "Const_7"
      attr {
        key: "dtype"
        value {
          type: DT_FLOAT
        }
      }
    }
    node {
      name: "ReadVariableOp_7"
      op: "ReadVariableOp"
      input: "network/output_bias"
      input: "^AssignVariableOp_7"
      attr {
        key: "_output_shapes"
        value {
          list {
            shape {
              dim {
                size: 3
              }
            }
          }
        }
      }
      attr {
        key: "dtype"
        value {
          type: DT_FLOAT
        }
      }
    }
    node {
      name: "save/filename/input"
      op: "Const"
      attr {
        key: "_output_shapes"
        value {
          list {
            shape {
            }
          }
        }
      }
      attr {
        key: "dtype"
        value {
          type: DT_STRING
        }
      }
      attr {
        key: "value"
        value {
          tensor {
            dtype: DT_STRING
            tensor_shape {
            }
            string_val: "model"
          }
        }
      }
    }
    node {
      name: "save/filename"
      op: "PlaceholderWithDefault"
      input: "save/filename/input"
      attr {
        key: "_output_shapes"
        value {
          list {
            shape {
            }
          }
        }
      }
      attr {
        key: "dtype"
        value {
          type: DT_STRING
        }
      }
      attr {
        key: "shape"
        value {
          shape {
          }
        }
      }
    }
    node {
      name: "save/Const"
      op: "PlaceholderWithDefault"
      input: "save/filename"
      attr {
        key: "_output_shapes"
        value {
          list {
            shape {
            }
          }
        }
      }
      attr {
        key: "dtype"
        value {
          type: DT_STRING
        }
      }
      attr {
        key: "shape"
        value {
          shape {
          }
        }
      }
    }
    node {
      name: "save/StaticRegexFullMatch"
      op: "StaticRegexFullMatch"
      input: "save/Const"
      device: "/device:CPU:*"
      attr {
        key: "_output_shapes"
        value {
          list {
            shape {
            }
          }
        }
      }
      attr {
        key: "pattern"
        value {
          s: "^s3://.*"
        }
      }
    }
    node {
      name: "save/Const_1"
      op: "Const"
      device: "/device:CPU:*"
      attr {
        key: "_output_shapes"
        value {
          list {
            shape {
            }
          }
        }
      }
      attr {
        key: "dtype"
        value {
          type: DT_STRING
        }
      }
      attr {
        key: "value"
        value {
          tensor {
            dtype: DT_STRING
            tensor_shape {
            }
            string_val: ".part"
          }
        }
      }
    }
    node {
      name: "save/Const_2"
      op: "Const"
      device: "/device:CPU:*"
      attr {
        key: "_output_shapes"
        value {
          list {
            shape {
            }
          }
        }
      }
      attr {
        key: "dtype"
        value {
          type: DT_STRING
        }
      }
      attr {
        key: "value"
        value {
          tensor {
            dtype: DT_STRING
            tensor_shape {
            }
            string_val: "_temp_e34ada077633485a9ebe14669bcf426d/part"
          }
        }
      }
    }
    node {
      name: "save/Select"
      op: "Select"
      input: "save/StaticRegexFullMatch"
      input: "save/Const_1"
      input: "save/Const_2"
      device: "/device:CPU:*"
      attr {
        key: "T"
        value {
          type: DT_STRING
        }
      }
      attr {
        key: "_output_shapes"
        value {
          list {
            shape {
            }
          }
        }
      }
    }
    node {
      name: "save/StringJoin"
      op: "StringJoin"
      input: "save/Const"
      input: "save/Select"
      device: "/device:CPU:*"
      attr {
        key: "N"
        value {
          i: 2
        }
      }
      attr {
        key: "_output_shapes"
        value {
          list {
            shape {
            }
          }
        }
      }
      attr {
        key: "separator"
        value {
          s: ""
        }
      }
    }
    node {
      name: "save/num_shards"
      op: "Const"
      attr {
        key: "_output_shapes"
        value {
          list {
            shape {
            }
          }
        }
      }
      attr {
        key: "dtype"
        value {
          type: DT_INT32
        }
      }
      attr {
        key: "value"
        value {
          tensor {
            dtype: DT_INT32
            tensor_shape {
            }
            int_val: 1
          }
        }
      }
    }
    node {
      name: "save/ShardedFilename/shard"
      op: "Const"
      device: "/device:CPU:0"
      attr {
        key: "_output_shapes"
        value {
          list {
            shape {
            }
          }
        }
      }
      attr {
        key: "dtype"
        value {
          type: DT_INT32
        }
      }
      attr {
        key: "value"
        value {
          tensor {
            dtype: DT_INT32
            tensor_shape {
            }
            int_val: 0
          }
        }
      }
    }
    node {
      name: "save/ShardedFilename"
      op: "ShardedFilename"
      input: "save/StringJoin"
      input: "save/ShardedFilename/shard"
      input: "save/num_shards"
      device: "/device:CPU:0"
      attr {
        key: "_output_shapes"
        value {
          list {
            shape {
            }
          }
        }
      }
    }
    node {
      name: "save/SaveV2/tensor_names"
      op: "Const"
      device: "/device:CPU:0"
      attr {
        key: "_output_shapes"
        value {
          list {
            shape {
              dim {
                size: 26
              }
            }
          }
        }
      }
      attr {
        key: "dtype"
        value {
          type: DT_STRING
        }
      }
      attr {
        key: "value"
        value {
          tensor {
            dtype: DT_STRING
            tensor_shape {
              dim {
                size: 26
              }
            }
            string_val: "beta1_power"
            string_val: "beta2_power"
            string_val: "network/biases"
            string_val: "network/biases/Adam"
            string_val: "network/biases/Adam_1"
            string_val: "network/biases_1"
            string_val: "network/biases_1/Adam"
            string_val: "network/biases_1/Adam_1"
            string_val: "network/biases_2"
            string_val: "network/biases_2/Adam"
            string_val: "network/biases_2/Adam_1"
            string_val: "network/output_bias"
            string_val: "network/output_bias/Adam"
            string_val: "network/output_bias/Adam_1"
            string_val: "network/output_weights"
            string_val: "network/output_weights/Adam"
            string_val: "network/output_weights/Adam_1"
            string_val: "network/weights"
            string_val: "network/weights/Adam"
            string_val: "network/weights/Adam_1"
            string_val: "network/weights_1"
            string_val: "network/weights_1/Adam"
            string_val: "network/weights_1/Adam_1"
            string_val: "network/weights_2"
            string_val: "network/weights_2/Adam"
            string_val: "network/weights_2/Adam_1"
          }
        }
      }
    }
    node {
      name: "save/SaveV2/shape_and_slices"
      op: "Const"
      device: "/device:CPU:0"
      attr {
        key: "_output_shapes"
        value {
          list {
            shape {
              dim {
                size: 26
              }
            }
          }
        }
      }
      attr {
        key: "dtype"
        value {
          type: DT_STRING
        }
      }
      attr {
        key: "value"
        value {
          tensor {
            dtype: DT_STRING
            tensor_shape {
              dim {
                size: 26
              }
            }
            string_val: ""
            string_val: ""
            string_val: ""
            string_val: ""
            string_val: ""
            string_val: ""
            string_val: ""
            string_val: ""
            string_val: ""
            string_val: ""
            string_val: ""
            string_val: ""
            string_val: ""
            string_val: ""
            string_val: ""
            string_val: ""
            string_val: ""
            string_val: ""
            string_val: ""
            string_val: ""
            string_val: ""
            string_val: ""
            string_val: ""
            string_val: ""
            string_val: ""
            string_val: ""
          }
        }
      }
    }
    node {
      name: "save/SaveV2"
      op: "SaveV2"
      input: "save/ShardedFilename"
      input: "save/SaveV2/tensor_names"
      input: "save/SaveV2/shape_and_slices"
      input: "beta1_power/Read/ReadVariableOp"
      input: "beta2_power/Read/ReadVariableOp"
      input: "network/biases/Read/ReadVariableOp"
      input: "network/biases/Adam/Read/ReadVariableOp"
      input: "network/biases/Adam_1/Read/ReadVariableOp"
      input: "network/biases_1/Read/ReadVariableOp"
      input: "network/biases_1/Adam/Read/ReadVariableOp"
      input: "network/biases_1/Adam_1/Read/ReadVariableOp"
      input: "network/biases_2/Read/ReadVariableOp"
      input: "network/biases_2/Adam/Read/ReadVariableOp"
      input: "network/biases_2/Adam_1/Read/ReadVariableOp"
      input: "network/output_bias/Read/ReadVariableOp"
      input: "network/output_bias/Adam/Read/ReadVariableOp"
      input: "network/output_bias/Adam_1/Read/ReadVariableOp"
      input: "network/output_weights/Read/ReadVariableOp"
      input: "network/output_weights/Adam/Read/ReadVariableOp"
      input: "network/output_weights/Adam_1/Read/ReadVariableOp"
      input: "network/weights/Read/ReadVariableOp"
      input: "network/weights/Adam/Read/ReadVariableOp"
      input: "network/weights/Adam_1/Read/ReadVariableOp"
      input: "network/weights_1/Read/ReadVariableOp"
      input: "network/weights_1/Adam/Read/ReadVariableOp"
      input: "network/weights_1/Adam_1/Read/ReadVariableOp"
      input: "network/weights_2/Read/ReadVariableOp"
      input: "network/weights_2/Adam/Read/ReadVariableOp"
      input: "network/weights_2/Adam_1/Read/ReadVariableOp"
      device: "/device:CPU:0"
      attr {
        key: "dtypes"
        value {
          list {
            type: DT_FLOAT
            type: DT_FLOAT
            type: DT_FLOAT
            type: DT_FLOAT
            type: DT_FLOAT
            type: DT_FLOAT
            type: DT_FLOAT
            type: DT_FLOAT
            type: DT_FLOAT
            type: DT_FLOAT
            type: DT_FLOAT
            type: DT_FLOAT
            type: DT_FLOAT
            type: DT_FLOAT
            type: DT_FLOAT
            type: DT_FLOAT
            type: DT_FLOAT
            type: DT_FLOAT
            type: DT_FLOAT
            type: DT_FLOAT
            type: DT_FLOAT
            type: DT_FLOAT
            type: DT_FLOAT
            type: DT_FLOAT
            type: DT_FLOAT
            type: DT_FLOAT
          }
        }
      }
    }
    node {
      name: "save/control_dependency"
      op: "Identity"
      input: "save/ShardedFilename"
      input: "^save/SaveV2"
      device: "/device:CPU:0"
      attr {
        key: "T"
        value {
          type: DT_STRING
        }
      }
      attr {
        key: "_class"
        value {
          list {
            s: "loc:@save/ShardedFilename"
          }
        }
      }
      attr {
        key: "_output_shapes"
        value {
          list {
            shape {
            }
          }
        }
      }
    }
    node {
      name: "save/MergeV2Checkpoints/checkpoint_prefixes"
      op: "Pack"
      input: "save/ShardedFilename"
      input: "^save/control_dependency"
      device: "/device:CPU:0"
      attr {
        key: "N"
        value {
          i: 1
        }
      }
      attr {
        key: "T"
        value {
          type: DT_STRING
        }
      }
      attr {
        key: "_output_shapes"
        value {
          list {
            shape {
              dim {
                size: 1
              }
            }
          }
        }
      }
      attr {
        key: "axis"
        value {
          i: 0
        }
      }
    }
    node {
      name: "save/MergeV2Checkpoints"
      op: "MergeV2Checkpoints"
      input: "save/MergeV2Checkpoints/checkpoint_prefixes"
      input: "save/Const"
      device: "/device:CPU:0"
      attr {
        key: "delete_old_dirs"
        value {
          b: true
        }
      }
    }
    node {
      name: "save/Identity"
      op: "Identity"
      input: "save/Const"
      input: "^save/MergeV2Checkpoints"
      input: "^save/control_dependency"
      device: "/device:CPU:0"
      attr {
        key: "T"
        value {
          type: DT_STRING
        }
      }
      attr {
        key: "_output_shapes"
        value {
          list {
            shape {
            }
          }
        }
      }
    }
    node {
      name: "save/RestoreV2/tensor_names"
      op: "Const"
      device: "/device:CPU:0"
      attr {
        key: "_output_shapes"
        value {
          list {
            shape {
              dim {
                size: 26
              }
            }
          }
        }
      }
      attr {
        key: "dtype"
        value {
          type: DT_STRING
        }
      }
      attr {
        key: "value"
        value {
          tensor {
            dtype: DT_STRING
            tensor_shape {
              dim {
                size: 26
              }
            }
            string_val: "beta1_power"
            string_val: "beta2_power"
            string_val: "network/biases"
            string_val: "network/biases/Adam"
            string_val: "network/biases/Adam_1"
            string_val: "network/biases_1"
            string_val: "network/biases_1/Adam"
            string_val: "network/biases_1/Adam_1"
            string_val: "network/biases_2"
            string_val: "network/biases_2/Adam"
            string_val: "network/biases_2/Adam_1"
            string_val: "network/output_bias"
            string_val: "network/output_bias/Adam"
            string_val: "network/output_bias/Adam_1"
            string_val: "network/output_weights"
            string_val: "network/output_weights/Adam"
            string_val: "network/output_weights/Adam_1"
            string_val: "network/weights"
            string_val: "network/weights/Adam"
            string_val: "network/weights/Adam_1"
            string_val: "network/weights_1"
            string_val: "network/weights_1/Adam"
            string_val: "network/weights_1/Adam_1"
            string_val: "network/weights_2"
            string_val: "network/weights_2/Adam"
            string_val: "network/weights_2/Adam_1"
          }
        }
      }
    }
    node {
      name: "save/RestoreV2/shape_and_slices"
      op: "Const"
      device: "/device:CPU:0"
      attr {
        key: "_output_shapes"
        value {
          list {
            shape {
              dim {
                size: 26
              }
            }
          }
        }
      }
      attr {
        key: "dtype"
        value {
          type: DT_STRING
        }
      }
      attr {
        key: "value"
        value {
          tensor {
            dtype: DT_STRING
            tensor_shape {
              dim {
                size: 26
              }
            }
            string_val: ""
            string_val: ""
            string_val: ""
            string_val: ""
            string_val: ""
            string_val: ""
            string_val: ""
            string_val: ""
            string_val: ""
            string_val: ""
            string_val: ""
            string_val: ""
            string_val: ""
            string_val: ""
            string_val: ""
            string_val: ""
            string_val: ""
            string_val: ""
            string_val: ""
            string_val: ""
            string_val: ""
            string_val: ""
            string_val: ""
            string_val: ""
            string_val: ""
            string_val: ""
          }
        }
      }
    }
    node {
      name: "save/RestoreV2"
      op: "RestoreV2"
      input: "save/Const"
      input: "save/RestoreV2/tensor_names"
      input: "save/RestoreV2/shape_and_slices"
      device: "/device:CPU:0"
      attr {
        key: "_output_shapes"
        value {
          list {
            shape {
              unknown_rank: true
            }
            shape {
              unknown_rank: true
            }
            shape {
              unknown_rank: true
            }
            shape {
              unknown_rank: true
            }
            shape {
              unknown_rank: true
            }
            shape {
              unknown_rank: true
            }
            shape {
              unknown_rank: true
            }
            shape {
              unknown_rank: true
            }
            shape {
              unknown_rank: true
            }
            shape {
              unknown_rank: true
            }
            shape {
              unknown_rank: true
            }
            shape {
              unknown_rank: true
            }
            shape {
              unknown_rank: true
            }
            shape {
              unknown_rank: true
            }
            shape {
              unknown_rank: true
            }
            shape {
              unknown_rank: true
            }
            shape {
              unknown_rank: true
            }
            shape {
              unknown_rank: true
            }
            shape {
              unknown_rank: true
            }
            shape {
              unknown_rank: true
            }
            shape {
              unknown_rank: true
            }
            shape {
              unknown_rank: true
            }
            shape {
              unknown_rank: true
            }
            shape {
              unknown_rank: true
            }
            shape {
              unknown_rank: true
            }
            shape {
              unknown_rank: true
            }
          }
        }
      }
      attr {
        key: "dtypes"
        value {
          list {
            type: DT_FLOAT
            type: DT_FLOAT
            type: DT_FLOAT
            type: DT_FLOAT
            type: DT_FLOAT
            type: DT_FLOAT
            type: DT_FLOAT
            type: DT_FLOAT
            type: DT_FLOAT
            type: DT_FLOAT
            type: DT_FLOAT
            type: DT_FLOAT
            type: DT_FLOAT
            type: DT_FLOAT
            type: DT_FLOAT
            type: DT_FLOAT
            type: DT_FLOAT
            type: DT_FLOAT
            type: DT_FLOAT
            type: DT_FLOAT
            type: DT_FLOAT
            type: DT_FLOAT
            type: DT_FLOAT
            type: DT_FLOAT
            type: DT_FLOAT
            type: DT_FLOAT
          }
        }
      }
    }
    node {
      name: "save/Identity_1"
      op: "Identity"
      input: "save/RestoreV2"
      attr {
        key: "T"
        value {
          type: DT_FLOAT
        }
      }
      attr {
        key: "_output_shapes"
        value {
          list {
            shape {
              unknown_rank: true
            }
          }
        }
      }
    }
    node {
      name: "save/AssignVariableOp"
      op: "AssignVariableOp"
      input: "beta1_power"
      input: "save/Identity_1"
      attr {
        key: "dtype"
        value {
          type: DT_FLOAT
        }
      }
    }
    node {
      name: "save/Identity_2"
      op: "Identity"
      input: "save/RestoreV2:1"
      attr {
        key: "T"
        value {
          type: DT_FLOAT
        }
      }
      attr {
        key: "_output_shapes"
        value {
          list {
            shape {
              unknown_rank: true
            }
          }
        }
      }
    }
    node {
      name: "save/AssignVariableOp_1"
      op: "AssignVariableOp"
      input: "beta2_power"
      input: "save/Identity_2"
      attr {
        key: "dtype"
        value {
          type: DT_FLOAT
        }
      }
    }
    node {
      name: "save/Identity_3"
      op: "Identity"
      input: "save/RestoreV2:2"
      attr {
        key: "T"
        value {
          type: DT_FLOAT
        }
      }
      attr {
        key: "_output_shapes"
        value {
          list {
            shape {
              unknown_rank: true
            }
          }
        }
      }
    }
    node {
      name: "save/AssignVariableOp_2"
      op: "AssignVariableOp"
      input: "network/biases"
      input: "save/Identity_3"
      attr {
        key: "dtype"
        value {
          type: DT_FLOAT
        }
      }
    }
    node {
      name: "save/Identity_4"
      op: "Identity"
      input: "save/RestoreV2:3"
      attr {
        key: "T"
        value {
          type: DT_FLOAT
        }
      }
      attr {
        key: "_output_shapes"
        value {
          list {
            shape {
              unknown_rank: true
            }
          }
        }
      }
    }
    node {
      name: "save/AssignVariableOp_3"
      op: "AssignVariableOp"
      input: "network/biases/Adam"
      input: "save/Identity_4"
      attr {
        key: "dtype"
        value {
          type: DT_FLOAT
        }
      }
    }
    node {
      name: "save/Identity_5"
      op: "Identity"
      input: "save/RestoreV2:4"
      attr {
        key: "T"
        value {
          type: DT_FLOAT
        }
      }
      attr {
        key: "_output_shapes"
        value {
          list {
            shape {
              unknown_rank: true
            }
          }
        }
      }
    }
    node {
      name: "save/AssignVariableOp_4"
      op: "AssignVariableOp"
      input: "network/biases/Adam_1"
      input: "save/Identity_5"
      attr {
        key: "dtype"
        value {
          type: DT_FLOAT
        }
      }
    }
    node {
      name: "save/Identity_6"
      op: "Identity"
      input: "save/RestoreV2:5"
      attr {
        key: "T"
        value {
          type: DT_FLOAT
        }
      }
      attr {
        key: "_output_shapes"
        value {
          list {
            shape {
              unknown_rank: true
            }
          }
        }
      }
    }
    node {
      name: "save/AssignVariableOp_5"
      op: "AssignVariableOp"
      input: "network/biases_1"
      input: "save/Identity_6"
      attr {
        key: "dtype"
        value {
          type: DT_FLOAT
        }
      }
    }
    node {
      name: "save/Identity_7"
      op: "Identity"
      input: "save/RestoreV2:6"
      attr {
        key: "T"
        value {
          type: DT_FLOAT
        }
      }
      attr {
        key: "_output_shapes"
        value {
          list {
            shape {
              unknown_rank: true
            }
          }
        }
      }
    }
    node {
      name: "save/AssignVariableOp_6"
      op: "AssignVariableOp"
      input: "network/biases_1/Adam"
      input: "save/Identity_7"
      attr {
        key: "dtype"
        value {
          type: DT_FLOAT
        }
      }
    }
    node {
      name: "save/Identity_8"
      op: "Identity"
      input: "save/RestoreV2:7"
      attr {
        key: "T"
        value {
          type: DT_FLOAT
        }
      }
      attr {
        key: "_output_shapes"
        value {
          list {
            shape {
              unknown_rank: true
            }
          }
        }
      }
    }
    node {
      name: "save/AssignVariableOp_7"
      op: "AssignVariableOp"
      input: "network/biases_1/Adam_1"
      input: "save/Identity_8"
      attr {
        key: "dtype"
        value {
          type: DT_FLOAT
        }
      }
    }
    node {
      name: "save/Identity_9"
      op: "Identity"
      input: "save/RestoreV2:8"
      attr {
        key: "T"
        value {
          type: DT_FLOAT
        }
      }
      attr {
        key: "_output_shapes"
        value {
          list {
            shape {
              unknown_rank: true
            }
          }
        }
      }
    }
    node {
      name: "save/AssignVariableOp_8"
      op: "AssignVariableOp"
      input: "network/biases_2"
      input: "save/Identity_9"
      attr {
        key: "dtype"
        value {
          type: DT_FLOAT
        }
      }
    }
    node {
      name: "save/Identity_10"
      op: "Identity"
      input: "save/RestoreV2:9"
      attr {
        key: "T"
        value {
          type: DT_FLOAT
        }
      }
      attr {
        key: "_output_shapes"
        value {
          list {
            shape {
              unknown_rank: true
            }
          }
        }
      }
    }
    node {
      name: "save/AssignVariableOp_9"
      op: "AssignVariableOp"
      input: "network/biases_2/Adam"
      input: "save/Identity_10"
      attr {
        key: "dtype"
        value {
          type: DT_FLOAT
        }
      }
    }
    node {
      name: "save/Identity_11"
      op: "Identity"
      input: "save/RestoreV2:10"
      attr {
        key: "T"
        value {
          type: DT_FLOAT
        }
      }
      attr {
        key: "_output_shapes"
        value {
          list {
            shape {
              unknown_rank: true
            }
          }
        }
      }
    }
    node {
      name: "save/AssignVariableOp_10"
      op: "AssignVariableOp"
      input: "network/biases_2/Adam_1"
      input: "save/Identity_11"
      attr {
        key: "dtype"
        value {
          type: DT_FLOAT
        }
      }
    }
    node {
      name: "save/Identity_12"
      op: "Identity"
      input: "save/RestoreV2:11"
      attr {
        key: "T"
        value {
          type: DT_FLOAT
        }
      }
      attr {
        key: "_output_shapes"
        value {
          list {
            shape {
              unknown_rank: true
            }
          }
        }
      }
    }
    node {
      name: "save/AssignVariableOp_11"
      op: "AssignVariableOp"
      input: "network/output_bias"
      input: "save/Identity_12"
      attr {
        key: "dtype"
        value {
          type: DT_FLOAT
        }
      }
    }
    node {
      name: "save/Identity_13"
      op: "Identity"
      input: "save/RestoreV2:12"
      attr {
        key: "T"
        value {
          type: DT_FLOAT
        }
      }
      attr {
        key: "_output_shapes"
        value {
          list {
            shape {
              unknown_rank: true
            }
          }
        }
      }
    }
    node {
      name: "save/AssignVariableOp_12"
      op: "AssignVariableOp"
      input: "network/output_bias/Adam"
      input: "save/Identity_13"
      attr {
        key: "dtype"
        value {
          type: DT_FLOAT
        }
      }
    }
    node {
      name: "save/Identity_14"
      op: "Identity"
      input: "save/RestoreV2:13"
      attr {
        key: "T"
        value {
          type: DT_FLOAT
        }
      }
      attr {
        key: "_output_shapes"
        value {
          list {
            shape {
              unknown_rank: true
            }
          }
        }
      }
    }
    node {
      name: "save/AssignVariableOp_13"
      op: "AssignVariableOp"
      input: "network/output_bias/Adam_1"
      input: "save/Identity_14"
      attr {
        key: "dtype"
        value {
          type: DT_FLOAT
        }
      }
    }
    node {
      name: "save/Identity_15"
      op: "Identity"
      input: "save/RestoreV2:14"
      attr {
        key: "T"
        value {
          type: DT_FLOAT
        }
      }
      attr {
        key: "_output_shapes"
        value {
          list {
            shape {
              unknown_rank: true
            }
          }
        }
      }
    }
    node {
      name: "save/AssignVariableOp_14"
      op: "AssignVariableOp"
      input: "network/output_weights"
      input: "save/Identity_15"
      attr {
        key: "dtype"
        value {
          type: DT_FLOAT
        }
      }
    }
    node {
      name: "save/Identity_16"
      op: "Identity"
      input: "save/RestoreV2:15"
      attr {
        key: "T"
        value {
          type: DT_FLOAT
        }
      }
      attr {
        key: "_output_shapes"
        value {
          list {
            shape {
              unknown_rank: true
            }
          }
        }
      }
    }
    node {
      name: "save/AssignVariableOp_15"
      op: "AssignVariableOp"
      input: "network/output_weights/Adam"
      input: "save/Identity_16"
      attr {
        key: "dtype"
        value {
          type: DT_FLOAT
        }
      }
    }
    node {
      name: "save/Identity_17"
      op: "Identity"
      input: "save/RestoreV2:16"
      attr {
        key: "T"
        value {
          type: DT_FLOAT
        }
      }
      attr {
        key: "_output_shapes"
        value {
          list {
            shape {
              unknown_rank: true
            }
          }
        }
      }
    }
    node {
      name: "save/AssignVariableOp_16"
      op: "AssignVariableOp"
      input: "network/output_weights/Adam_1"
      input: "save/Identity_17"
      attr {
        key: "dtype"
        value {
          type: DT_FLOAT
        }
      }
    }
    node {
      name: "save/Identity_18"
      op: "Identity"
      input: "save/RestoreV2:17"
      attr {
        key: "T"
        value {
          type: DT_FLOAT
        }
      }
      attr {
        key: "_output_shapes"
        value {
          list {
            shape {
              unknown_rank: true
            }
          }
        }
      }
    }
    node {
      name: "save/AssignVariableOp_17"
      op: "AssignVariableOp"
      input: "network/weights"
      input: "save/Identity_18"
      attr {
        key: "dtype"
        value {
          type: DT_FLOAT
        }
      }
    }
    node {
      name: "save/Identity_19"
      op: "Identity"
      input: "save/RestoreV2:18"
      attr {
        key: "T"
        value {
          type: DT_FLOAT
        }
      }
      attr {
        key: "_output_shapes"
        value {
          list {
            shape {
              unknown_rank: true
            }
          }
        }
      }
    }
    node {
      name: "save/AssignVariableOp_18"
      op: "AssignVariableOp"
      input: "network/weights/Adam"
      input: "save/Identity_19"
      attr {
        key: "dtype"
        value {
          type: DT_FLOAT
        }
      }
    }
    node {
      name: "save/Identity_20"
      op: "Identity"
      input: "save/RestoreV2:19"
      attr {
        key: "T"
        value {
          type: DT_FLOAT
        }
      }
      attr {
        key: "_output_shapes"
        value {
          list {
            shape {
              unknown_rank: true
            }
          }
        }
      }
    }
    node {
      name: "save/AssignVariableOp_19"
      op: "AssignVariableOp"
      input: "network/weights/Adam_1"
      input: "save/Identity_20"
      attr {
        key: "dtype"
        value {
          type: DT_FLOAT
        }
      }
    }
    node {
      name: "save/Identity_21"
      op: "Identity"
      input: "save/RestoreV2:20"
      attr {
        key: "T"
        value {
          type: DT_FLOAT
        }
      }
      attr {
        key: "_output_shapes"
        value {
          list {
            shape {
              unknown_rank: true
            }
          }
        }
      }
    }
    node {
      name: "save/AssignVariableOp_20"
      op: "AssignVariableOp"
      input: "network/weights_1"
      input: "save/Identity_21"
      attr {
        key: "dtype"
        value {
          type: DT_FLOAT
        }
      }
    }
    node {
      name: "save/Identity_22"
      op: "Identity"
      input: "save/RestoreV2:21"
      attr {
        key: "T"
        value {
          type: DT_FLOAT
        }
      }
      attr {
        key: "_output_shapes"
        value {
          list {
            shape {
              unknown_rank: true
            }
          }
        }
      }
    }
    node {
      name: "save/AssignVariableOp_21"
      op: "AssignVariableOp"
      input: "network/weights_1/Adam"
      input: "save/Identity_22"
      attr {
        key: "dtype"
        value {
          type: DT_FLOAT
        }
      }
    }
    node {
      name: "save/Identity_23"
      op: "Identity"
      input: "save/RestoreV2:22"
      attr {
        key: "T"
        value {
          type: DT_FLOAT
        }
      }
      attr {
        key: "_output_shapes"
        value {
          list {
            shape {
              unknown_rank: true
            }
          }
        }
      }
    }
    node {
      name: "save/AssignVariableOp_22"
      op: "AssignVariableOp"
      input: "network/weights_1/Adam_1"
      input: "save/Identity_23"
      attr {
        key: "dtype"
        value {
          type: DT_FLOAT
        }
      }
    }
    node {
      name: "save/Identity_24"
      op: "Identity"
      input: "save/RestoreV2:23"
      attr {
        key: "T"
        value {
          type: DT_FLOAT
        }
      }
      attr {
        key: "_output_shapes"
        value {
          list {
            shape {
              unknown_rank: true
            }
          }
        }
      }
    }
    node {
      name: "save/AssignVariableOp_23"
      op: "AssignVariableOp"
      input: "network/weights_2"
      input: "save/Identity_24"
      attr {
        key: "dtype"
        value {
          type: DT_FLOAT
        }
      }
    }
    node {
      name: "save/Identity_25"
      op: "Identity"
      input: "save/RestoreV2:24"
      attr {
        key: "T"
        value {
          type: DT_FLOAT
        }
      }
      attr {
        key: "_output_shapes"
        value {
          list {
            shape {
              unknown_rank: true
            }
          }
        }
      }
    }
    node {
      name: "save/AssignVariableOp_24"
      op: "AssignVariableOp"
      input: "network/weights_2/Adam"
      input: "save/Identity_25"
      attr {
        key: "dtype"
        value {
          type: DT_FLOAT
        }
      }
    }
    node {
      name: "save/Identity_26"
      op: "Identity"
      input: "save/RestoreV2:25"
      attr {
        key: "T"
        value {
          type: DT_FLOAT
        }
      }
      attr {
        key: "_output_shapes"
        value {
          list {
            shape {
              unknown_rank: true
            }
          }
        }
      }
    }
    node {
      name: "save/AssignVariableOp_25"
      op: "AssignVariableOp"
      input: "network/weights_2/Adam_1"
      input: "save/Identity_26"
      attr {
        key: "dtype"
        value {
          type: DT_FLOAT
        }
      }
    }
    node {
      name: "save/restore_shard"
      op: "NoOp"
      input: "^save/AssignVariableOp"
      input: "^save/AssignVariableOp_1"
      input: "^save/AssignVariableOp_10"
      input: "^save/AssignVariableOp_11"
      input: "^save/AssignVariableOp_12"
      input: "^save/AssignVariableOp_13"
      input: "^save/AssignVariableOp_14"
      input: "^save/AssignVariableOp_15"
      input: "^save/AssignVariableOp_16"
      input: "^save/AssignVariableOp_17"
      input: "^save/AssignVariableOp_18"
      input: "^save/AssignVariableOp_19"
      input: "^save/AssignVariableOp_2"
      input: "^save/AssignVariableOp_20"
      input: "^save/AssignVariableOp_21"
      input: "^save/AssignVariableOp_22"
      input: "^save/AssignVariableOp_23"
      input: "^save/AssignVariableOp_24"
      input: "^save/AssignVariableOp_25"
      input: "^save/AssignVariableOp_3"
      input: "^save/AssignVariableOp_4"
      input: "^save/AssignVariableOp_5"
      input: "^save/AssignVariableOp_6"
      input: "^save/AssignVariableOp_7"
      input: "^save/AssignVariableOp_8"
      input: "^save/AssignVariableOp_9"
    }
    node {
      name: "save/restore_all"
      op: "NoOp"
      input: "^save/restore_shard"
    }
    versions {
      producer: 175
    }
  }
  saver_def {
    filename_tensor_name: "save/Const:0"
    save_tensor_name: "save/Identity:0"
    restore_op_name: "save/restore_all"
    max_to_keep: 5
    sharded: true
    keep_checkpoint_every_n_hours: 10000.0
    version: V2
  }
  collection_def {
    key: "train_op"
    value {
      node_list {
        value: "Adam"
      }
    }
  }
  collection_def {
    key: "trainable_variables"
    value {
      bytes_list {
        value: "\n\021network/weights:0\022\026network/weights/Assign\032%network/weights/Read/ReadVariableOp:0(\0012\032network/truncated_normal:08\001"
        value: "\n\020network/biases:0\022\025network/biases/Assign\032$network/biases/Read/ReadVariableOp:0(\0012\017network/Const:08\001"
        value: "\n\023network/weights_1:0\022\030network/weights_1/Assign\032\'network/weights_1/Read/ReadVariableOp:0(\0012\034network/truncated_normal_1:08\001"
        value: "\n\022network/biases_1:0\022\027network/biases_1/Assign\032&network/biases_1/Read/ReadVariableOp:0(\0012\021network/Const_1:08\001"
        value: "\n\023network/weights_2:0\022\030network/weights_2/Assign\032\'network/weights_2/Read/ReadVariableOp:0(\0012\034network/truncated_normal_2:08\001"
        value: "\n\022network/biases_2:0\022\027network/biases_2/Assign\032&network/biases_2/Read/ReadVariableOp:0(\0012\021network/Const_2:08\001"
        value: "\n\030network/output_weights:0\022\035network/output_weights/Assign\032,network/output_weights/Read/ReadVariableOp:0(\0012\034network/truncated_normal_3:08\001"
        value: "\n\025network/output_bias:0\022\032network/output_bias/Assign\032)network/output_bias/Read/ReadVariableOp:0(\0012\021network/Const_3:08\001"
      }
    }
  }
  collection_def {
    key: "variables"
    value {
      bytes_list {
        value: "\n\021network/weights:0\022\026network/weights/Assign\032%network/weights/Read/ReadVariableOp:0(\0012\032network/truncated_normal:08\001"
        value: "\n\020network/biases:0\022\025network/biases/Assign\032$network/biases/Read/ReadVariableOp:0(\0012\017network/Const:08\001"
        value: "\n\023network/weights_1:0\022\030network/weights_1/Assign\032\'network/weights_1/Read/ReadVariableOp:0(\0012\034network/truncated_normal_1:08\001"
        value: "\n\022network/biases_1:0\022\027network/biases_1/Assign\032&network/biases_1/Read/ReadVariableOp:0(\0012\021network/Const_1:08\001"
        value: "\n\023network/weights_2:0\022\030network/weights_2/Assign\032\'network/weights_2/Read/ReadVariableOp:0(\0012\034network/truncated_normal_2:08\001"
        value: "\n\022network/biases_2:0\022\027network/biases_2/Assign\032&network/biases_2/Read/ReadVariableOp:0(\0012\021network/Const_2:08\001"
        value: "\n\030network/output_weights:0\022\035network/output_weights/Assign\032,network/output_weights/Read/ReadVariableOp:0(\0012\034network/truncated_normal_3:08\001"
        value: "\n\025network/output_bias:0\022\032network/output_bias/Assign\032)network/output_bias/Read/ReadVariableOp:0(\0012\021network/Const_3:08\001"
        value: "\n\rbeta1_power:0\022\022beta1_power/Assign\032!beta1_power/Read/ReadVariableOp:0(\0012\'beta1_power/Initializer/initial_value:0"
        value: "\n\rbeta2_power:0\022\022beta2_power/Assign\032!beta2_power/Read/ReadVariableOp:0(\0012\'beta2_power/Initializer/initial_value:0"
        value: "\n\026network/weights/Adam:0\022\033network/weights/Adam/Assign\032*network/weights/Adam/Read/ReadVariableOp:0(\0012(network/weights/Adam/Initializer/zeros:0"
        value: "\n\030network/weights/Adam_1:0\022\035network/weights/Adam_1/Assign\032,network/weights/Adam_1/Read/ReadVariableOp:0(\0012*network/weights/Adam_1/Initializer/zeros:0"
        value: "\n\025network/biases/Adam:0\022\032network/biases/Adam/Assign\032)network/biases/Adam/Read/ReadVariableOp:0(\0012\'network/biases/Adam/Initializer/zeros:0"
        value: "\n\027network/biases/Adam_1:0\022\034network/biases/Adam_1/Assign\032+network/biases/Adam_1/Read/ReadVariableOp:0(\0012)network/biases/Adam_1/Initializer/zeros:0"
        value: "\n\030network/weights_1/Adam:0\022\035network/weights_1/Adam/Assign\032,network/weights_1/Adam/Read/ReadVariableOp:0(\0012*network/weights_1/Adam/Initializer/zeros:0"
        value: "\n\032network/weights_1/Adam_1:0\022\037network/weights_1/Adam_1/Assign\032.network/weights_1/Adam_1/Read/ReadVariableOp:0(\0012,network/weights_1/Adam_1/Initializer/zeros:0"
        value: "\n\027network/biases_1/Adam:0\022\034network/biases_1/Adam/Assign\032+network/biases_1/Adam/Read/ReadVariableOp:0(\0012)network/biases_1/Adam/Initializer/zeros:0"
        value: "\n\031network/biases_1/Adam_1:0\022\036network/biases_1/Adam_1/Assign\032-network/biases_1/Adam_1/Read/ReadVariableOp:0(\0012+network/biases_1/Adam_1/Initializer/zeros:0"
        value: "\n\030network/weights_2/Adam:0\022\035network/weights_2/Adam/Assign\032,network/weights_2/Adam/Read/ReadVariableOp:0(\0012*network/weights_2/Adam/Initializer/zeros:0"
        value: "\n\032network/weights_2/Adam_1:0\022\037network/weights_2/Adam_1/Assign\032.network/weights_2/Adam_1/Read/ReadVariableOp:0(\0012,network/weights_2/Adam_1/Initializer/zeros:0"
        value: "\n\027network/biases_2/Adam:0\022\034network/biases_2/Adam/Assign\032+network/biases_2/Adam/Read/ReadVariableOp:0(\0012)network/biases_2/Adam/Initializer/zeros:0"
        value: "\n\031network/biases_2/Adam_1:0\022\036network/biases_2/Adam_1/Assign\032-network/biases_2/Adam_1/Read/ReadVariableOp:0(\0012+network/biases_2/Adam_1/Initializer/zeros:0"
        value: "\n\035network/output_weights/Adam:0\022\"network/output_weights/Adam/Assign\0321network/output_weights/Adam/Read/ReadVariableOp:0(\0012/network/output_weights/Adam/Initializer/zeros:0"
        value: "\n\037network/output_weights/Adam_1:0\022$network/output_weights/Adam_1/Assign\0323network/output_weights/Adam_1/Read/ReadVariableOp:0(\00121network/output_weights/Adam_1/Initializer/zeros:0"
        value: "\n\032network/output_bias/Adam:0\022\037network/output_bias/Adam/Assign\032.network/output_bias/Adam/Read/ReadVariableOp:0(\0012,network/output_bias/Adam/Initializer/zeros:0"
        value: "\n\034network/output_bias/Adam_1:0\022!network/output_bias/Adam_1/Assign\0320network/output_bias/Adam_1/Read/ReadVariableOp:0(\0012.network/output_bias/Adam_1/Initializer/zeros:0"
      }
    }
  }
}
